results/Creature/CreatureBehavior/CreatureBehavior-666953.onnx (onnx, 139732 bytes, 8 tensors)

network_body._body_endoder.seq_layers.0.weight f4 [128, 126]
000000 3b f4 ac bd 7a e4 80 bd 12 1a a4 3d 14 39 17 3d
       -0.08445021 -0.062935784 0.08012785 0.03691967
000010 80 32 8d 3d 93 cc 94 3d d4 21 d4 bd fc 7e 80 bd
       0.06894398 0.07265582 -0.10358015 -0.0627422
000020 77 c8 2d 3e 86 e8 11 3d 54 c3 54 bb 0c b1 c8 3d
       0.16971003 0.035622142 -0.0032465057 0.09799394
000030 b5 62 27 bd 26 78 07 bd 99 73 0a 3e 7d cd c8 bd
       -0.04086562 -0.033073567 0.1352066 -0.09804819
000040 ca 10 d8 bc 0b 4a e8 3d 76 fd 87 3d 3f 6c 03 be
       -0.026375193 0.113422476 0.06640141 -0.12834261
000050 97 1e 0b be d9 95 74 3d 35 ca 23 be 10 21 0b 3e
       -0.13585888 0.05971322 -0.15995105 0.13586831
000060 bb e0 21 bd ea 16 6c 3c e1 52 61 bd 4c 8b 4f bd
       -0.03952096 0.01440976 -0.05501068 -0.050669953
000070 1d 66 46 be ac ac fd 3c 7f 6a ad bc d6 19 2a bd
       -0.1937489 0.030966125 -0.021168945 -0.041528545
000080 5e 53 06 3e e5 22 ea bd 45 dd a4 3c 69 7f aa 3d
       0.1311774 -0.11432437 0.02012504 0.08325083
000090 20 c6 76 bd 11 e1 f3 3c e1 ed 00 3e 5c 04 66 be
       -0.06024754 0.029770406 0.12590744 -0.224626
0000a0 a2 cd 2a bd c9 cf 93 3e 2d 03 eb 3d 87 23 88 3a
       -0.041700013 0.28869465 0.11475215 0.0010386565
0000b0 5c 88 ee bc 24 50 20 3e fd 7e f2 3c cd 9e 10 bd
       -0.029117756 0.15655571 0.029601568 -0.035307694
0000c0 4f df 13 3d f1 a1 11 3d 96 aa 32 bb ea 58 da 3d
       0.036101636 0.03555483 -0.0027262322 0.1066149
0000d0 29 a2 a3 bc dd 01 aa 3d f2 e5 11 bd 53 fa 0f 3e
       -0.019974785 0.08301137 -0.035619684 0.14060335
0000e0 0d 5d 83 3d 5b dd 03 bd cf da a5 3c 7e ce 1a 3e
       0.064142324 -0.032193523 0.020245938 0.15117833
0000f0 c7 bd 06 be 2d cf 69 3c a0 ca a7 3d b1 10 15 be
       -0.13158332 0.014270586 0.081929445 -0.14557149
000100 b5 af a8 bd 16 f9 9d bb e8 a9 66 3b c0 4a 7a bd
       -0.082366385 -0.004820953 0.0035196487 -0.061106443
000110 22 ce be 3d 94 67 1a 3d 93 f0 fe 3b 7c 85 e7 bd
       0.093166605 0.037696436 0.0077801435 -0.11304757
000120 3d 9b 95 3d 14 f7 4d bd ec 97 0f bc 8c 38 37 be
       0.07305 -0.05028446 -0.008764248 -0.17892665
000130 cb 01 5b bd 2a 3d 51 3e ca 0b 48 3d d2 46 88 3d
       -0.053468507 0.20433488 0.048839368 0.06654133
000140 a3 2b ca 3d 19 55 91 bd c5 d5 74 3d a6 56 33 bc
       0.09871604 -0.07096309 0.05977418 -0.010945952
000150 b1 8f 99 3d 93 02 91 3d a8 97 2b 3d 9b 59 95 be
       0.0749811 0.07080569 0.041892678 -0.29169926
000160 02 42 07 be 35 ed 1c 3e f5 c4 f0 bd bc ea 48 bd
       -0.13208774 0.15324862 -0.117563166 -0.049051985
000170 c5 6b f0 bc 3e 87 94 bc 17 9e 8e 3d 45 62 a0 3d
       -0.029348264 -0.018130895 0.06963747 0.078312434
000180 62 5b c6 bd 76 e8 26 bd 7b 18 b7 bb 5d 36 29 bc
       -0.09685399 -0.040749036 -0.005587635 -0.010327903
000190 96 aa 61 3d 81 bf 95 3d 8f 58 eb bd c4 9c f0 3b
       0.055094324 0.07311917 -0.114915006 0.0073429067
0001a0 6f 99 9d bc 9e b9 4f be 85 45 c6 3d 6a c0 5a 3c
       -0.019238202 -0.20285651 0.096812285 0.013351539
0001b0 2e 78 bf bc af 51 85 3d 4d 94 a3 bd 9d 19 10 bb
       -0.023372736 0.065097205 -0.079872705 -0.0021987923
0001c0 18 06 d3 bd 8f 80 8c 3d 93 73 0a 3e e4 72 b0 3d
       -0.10303897 0.06860458 0.1352065 0.08615664
0001d0 a0 bd 53 3d 48 92 03 be 22 24 e6 3c 21 51 0b bd
       0.051694512 -0.1284877 0.028093401 -0.034012917
0001e0 39 f1 32 3e 5f d7 42 be 41 60 a0 bc 9e 94 f4 bc
       0.17474832 -0.1902747 -0.019577147 -0.029856022
0001f0 86 c4 49 3c 7a 30 39 bd 6d ea 1f be 72 96 88 3d
       0.012314921 -0.045212246 -0.1561677 0.0666932
000200 32 04 ab 3d 9b 8b 37 bd 36 22 99 bd 12 52 4f bd
       0.083504096 -0.044810873 -0.07477228 -0.050615378
000210 c3 02 35 be f4 d0 f6 3c d5 4a db bd c7 59 d0 3d
       -0.17676835 0.030128933 -0.107076325 0.10173374
000220 01 ac c8 bc e7 43 8b 3d 07 c2 67 bc ee f9 ec 3d
       -0.02449608 0.06800061 -0.014145381 0.11571108
000230 d3 f2 a1 3c d9 01 56 3c 93 b2 c3 bd 48 32 a3 3d
       0.019769108 0.013061964 -0.09555545 0.07968575
000240 85 0b 93 3d 46 0a c8 bc 56 49 b7 3c 4b d9 ba bd
       0.071799316 -0.024418961 0.022373836 -0.091234766
000250 18 c3 1c be 2a 39 ea bd 20 c4 2d be 1f e3 5f 3d
       -0.15308797 -0.114366844 -0.16969347 0.05465996
000260 89 22 0c 3e 87 c4 40 bd 2d 48 14 3e 54 62 c7 bc
       0.13685049 -0.047062423 0.14480658 -0.024338879
000270 da 7a 30 bc 0f 6d 8d bc 92 d3 cc bd b3 8b b0 3d
       -0.010771478 -0.017263917 -0.10001291 0.086203955
000280 7e 27 90 3c b6 95 6e 3d 60 dd e1 3c 5d b8 13 3d
       0.017596956 0.058248244 0.02757138 0.036064494
000290 26 f5 c2 bd 12 54 bf 3d 91 72 2b bc 1c 48 1f 3e
       -0.095194146 0.09342207 -0.0104643265 0.15554851
0002a0 86 fb 50 bd 88 57 e8 3c f2 ff 47 3c 8b 03 3d 3d
       -0.05102112 0.02836205 0.012207018 0.046145957
0002b0 d5 54 b4 bd da 2d 0e be e5 b3 88 bd e4 0f c4 bd
       -0.08805243 -0.13884678 -0.06674937 -0.095733434
0002c0 6c 88 b4 3d 44 53 8d bd 0d 1e 03 bc b3 9d 22 3d
       0.08815083 -0.06900647 -0.00800277 0.039701175
0002d0 81 e3 10 be ef 6d da bc 6f 15 d6 3d 95 12 20 3d
       -0.14149286 -0.026663749 0.10453307 0.03908022
0002e0 bd b3 f2 3d fa 87 2e 3d 14 9d a2 bd d3 3d d5 bd
       0.118506886 0.042610146 -0.079401165 -0.10412183
0002f0 6f 44 36 3e bc b6 8f 3d c8 58 25 bd 84 69 5e bb
       0.17799543 0.07017276 -0.04036787 -0.0033937404
000300 44 5d 95 bc 17 13 30 bd 8f 01 c2 3d 44 5e c9 bd
       -0.01823295 -0.042986955 0.094729535 -0.09832433
000310 28 74 34 bd 97 1f 71 bd 2d 99 8c 3d 0c 37 a1 3d
       -0.044056088 -0.058868017 0.068651535 0.078718275
000320 62 71 12 3e f8 20 56 be e5 d8 14 3e 80 8b 87 3d
       0.14301065 -0.20911014 0.14535864 0.066184044
000330 7a 95 46 be 7e 57 fc 3d 0a c0 1c 3d 52 52 1d 3c
       -0.19392958 0.12321375 0.03826908 0.009602146
000340 d7 be 55 bd da 5e 54 3d b1 d5 66 3d 4c c9 a7 bd
       -0.052183952 0.05184827 0.056356136 -0.08192691
000350 d7 6f e6 3c 70 1d 22 3e 65 9e db 3c 7c 0c ca bd
       0.028129501 0.15831542 0.026808927 -0.098656625
000360 9c 08 07 be 72 e7 10 bd 11 89 b6 3d a3 0a 0e be
       -0.13186878 -0.035376973 0.08912862 -0.13871245
000370 1f a8 50 bd df 8f 2f be 71 db a2 3c bf 9a 90 3c
       -0.050941583 -0.17144726 0.019880028 0.017651914
000380 d5 bc c8 3d 65 44 d5 bd fa 1f 96 3d af bd 23 bd
       0.09801642 -0.10413436 0.07330318 -0.03997582
000390 2d 84 01 be e6 7e 06 3d fe 53 18 3e dc e2 d6 bd
       -0.12648077 0.032835864 0.1487579 -0.10492489
0003a0 f5 bf bb 3d 20 f2 04 3d cf 8c c5 bd db e7 65 bc
       0.09167472 0.03245747 -0.09645998 -0.014032329
0003b0 1c bb c8 3d fc b6 64 bd ac bd 98 bd 26 c3 62 3d
       0.09801313 -0.05583857 -0.07458052 0.05536189
0003c0 3d 60 37 3c 16 30 36 bd 9f af 95 3c fe ee 25 3b
       0.011192379 -0.044479452 0.01827222 0.0025319452
0003d0 64 1d b9 3d 7f 0a 9a bd ae a9 a3 bd 74 7c 90 3d
       0.09038809 -0.07521533 -0.07991348 0.070549875
0003e0 e2 9d 68 3d 9f 8a d4 3c 99 56 19 be 6a 4e b0 bc
       0.056791194 0.025945006 -0.1497444 -0.021521766
0003f0 bd 9c fb bd 1f 87 e9 bc 44 b2 65 3c a5 cd a9 be
       -0.12285755 -0.028506814 0.014019553 -0.33164707

network_body._body_endoder.seq_layers.0.bias f4 [128]
000000 6a cc 6b 3c bd 4a 3e 3b 07 57 be 3c 17 b3 c3 bc
       0.014391998 0.0029036247 0.023234857 -0.023889108
000010 29 25 ef 3b 76 5e 15 bc ef 4d 05 3d 16 1a 79 3c
       0.007298131 -0.0091167595 0.032545026 0.015203973
000020 10 82 93 3b 2c c7 ba 3c 1e 81 84 3b dd 96 68 3d
       0.0045015886 0.02280005 0.0040437123 0.0567845
000030 4d 4d dc bb 7f 97 02 3d 51 46 38 bc 75 34 07 3c
       -0.006723082 0.03188276 -0.0112472335 0.008252253
000040 4a 51 7d 3b 7e f6 d7 3b 4c 80 50 3c 3e 09 11 3d
       0.0038653188 0.0065906635 0.012725901 0.035409205
000050 ad cb e6 3c 4b 0c 11 3c 60 cf f5 3b 36 93 02 bb
       0.028173292 0.0088530285 0.0075015277 -0.001992417
000060 da 62 fe 3c 3d 0d 31 3c 65 1a a2 3c e5 5e a5 3c
       0.031052995 0.010806379 0.019787977 0.02018685
000070 13 b3 29 bc 96 21 85 bc cf f5 76 3c 24 c6 b9 3b
       -0.010357636 -0.016251367 0.015073254 0.005669372
000080 27 46 b2 bc fc 81 86 3c 73 a2 e4 bc b9 d8 16 3d
       -0.021761967 0.016419403 -0.027909493 0.036827777
000090 e3 15 40 3c 14 fa b7 bc cc 06 49 3c 5a 66 d2 3b
       0.011723968 -0.022458114 0.012269687 0.0064208927
0000a0 0c 63 ba ba 67 c3 0a 3c aa e3 36 3c 4a 2f a2 3c
       -0.0014220192 0.008469439 0.011162678 0.01979794
0000b0 a9 78 8b 3c 9b 7d cb 3c 09 3b 84 3c 86 7d cd 3a
       0.017025309 0.024840167 0.016141431 0.0015677668
0000c0 a8 bf 2a 3c 16 55 c2 3c e4 e3 80 3c 78 c0 29 3c
       0.010421671 0.023722213 0.015733667 0.0103608295
0000d0 e2 b4 d6 3c 8f b1 c2 38 76 5b e9 3b 83 ae 85 3c
       0.026209299 9.283714e-05 0.0071214987 0.016318565
0000e0 18 5b 60 3b 59 1f 34 3c ea c4 e1 bb b8 23 9c 3c
       0.0034233984 0.010993802 -0.006889929 0.01906
0000f0 15 10 2c 3c 88 c4 90 bb 16 b4 d8 3b a3 b6 99 3a
       0.010501881 -0.0044179596 0.006613265 0.0011727404
000100 f2 e1 28 3b fc fd 39 3c 44 56 08 3c 9c 5c fe 3b
       0.002576944 0.0113520585 0.008321349 0.0077625047
000110 c2 58 c4 ba 73 3b e1 3b 7c 02 c4 3b ea bc d8 3c
       -0.0014980065 0.006873542 0.0059817415 0.026457269
000120 62 21 4c bb da 34 4d 3c 87 72 33 3c 9b 8f fb 3c
       -0.0031147827 0.012524808 0.010952598 0.030708125
000130 6a 8a c9 3b 1c 8e 35 3b 50 20 9f 3c f9 b1 89 3c
       0.0061505334 0.0027703112 0.019424587 0.016808497
000140 cb a6 ac 3b 8b db f8 3a 5e da 64 3c 9b b1 7c 3b
       0.0052689067 0.0018986327 0.013968078 0.003855801
000150 f8 5b 43 3c 68 b3 f4 3a 97 3f c9 3b 0b ea 55 bc
       0.0119237825 0.001866919 0.0061416137 -0.0130562885
000160 cb 9b 9a 3c b8 cc e0 3b 13 55 72 3c 2e b5 85 3c
       0.018873116 0.006860342 0.014790791 0.016321745
000170 fd 07 0f bd 7d 5f 83 3c d7 cd 1d 3c 22 af a8 3c
       -0.034919728 0.016036743 0.009631596 0.020591322
000180 cc e0 59 3a 3c 62 ac bb df de 6b 3c 52 ad 33 3c
       0.00083113904 -0.005260734 0.014396398 0.010966616
000190 2e 0f c4 3c 9c 12 d8 3c 38 1b 8a 3c d0 f8 68 3c
       0.02393302 0.026376061 0.016858682 0.014219478
0001a0 dd 9b c0 3c f3 38 30 3b 0d a3 f3 3a 4d b9 01 3b
       0.023511821 0.0026889413 0.0018588022 0.0019794286
0001b0 ab b5 ce 3a b3 03 8f 3c ad d7 66 3c 29 1d 0d 3c
       0.0015770694 0.017457819 0.014089507 0.008612909
0001c0 40 a7 eb 3c 24 b1 a9 3b 07 62 13 3b 0f 80 de bc
       0.028766274 0.0051785875 0.0022488849 -0.027160672
0001d0 cf 88 b5 3b a3 08 04 3c ea 0b 10 bb 17 1a 05 3d
       0.0055399905 0.0080587 -0.0021979758 0.032495584
0001e0 cb 8a 93 bc 77 04 db ba e2 17 2a bc aa 52 5f b8
       -0.018010518 -0.0016709705 -0.010381671 -5.324433e-05
0001f0 cc af 79 3b bd 2c e2 3b 4e 0d 95 bb b4 38 36 3c
       0.0038099168 0.006902306 -0.004548705 0.0111219175

network_body._body_endoder.seq_layers.2.weight f4 [128, 128]
000000 d8 93 93 bd 39 9e a9 bc 39 a1 39 3d f4 e8 cd bc
       -0.07205933 -0.02070533 0.04531977 -0.025135495
000010 17 d3 c5 bd fb 97 8a 3d 4d c2 b1 bd 01 47 03 bd
       -0.09659403 0.06767269 -0.08679638 -0.032050136
000020 b9 97 43 bd 18 a2 b2 bc 46 b7 1a 3d f1 88 a7 3d
       -0.047752116 -0.021805808 0.03777244 0.081804164
000030 31 f0 79 3d 28 c5 32 3d 0e c6 72 3d e2 34 a6 3d
       0.06102008 0.043645054 0.05927091 0.08115555
000040 8a 86 c1 ba cc 01 1b be 38 88 0d be 5c 97 0d bb
       -0.0014764827 -0.15137404 -0.13821495 -0.002160511
000050 fa 8c e6 bc 2a 51 ad 3d bc 06 90 ba 90 08 4c be
       -0.028143395 0.084627464 -0.0010988335 -0.19925141
000060 30 27 05 bd 6f 0b 8f bd cf ac 57 3e 64 5f 19 be
       -0.032508075 -0.06984603 0.21062015 -0.14977795
000070 17 51 c7 3d 50 cf 85 3d 4b ad d0 3d ee 61 1a bd
       0.097322635 0.06533682 0.10189303 -0.03769105
000080 77 30 05 bd dc 47 1a bc fe 71 d3 bd 44 45 63 bd
       -0.032516923 -0.009416547 -0.10324477 -0.05548598
000090 a9 d0 a8 3b a6 d1 2b 3e 7b e1 0b bd 2e 95 49 be
       0.0051518274 0.16779193 -0.03415058 -0.19685814
0000a0 29 d4 8a 3d 58 57 66 3d 5a 1f f1 bc 4e 1a 4b bd
       0.067787476 0.05623564 -0.029433895 -0.049585633
0000b0 e9 61 60 bc 28 87 ce bc fd a9 67 3d 4e 52 2a 3c
       -0.013695219 -0.025210932 0.056558598 0.0103955995
0000c0 af 16 4b bd 62 4e 0c be 85 12 ed bd 6a b4 d4 bd
       -0.04958218 -0.13701776 -0.11575798 -0.10385974
0000d0 62 bb 30 3e 9f e4 41 3d d7 29 8b bc 11 9f f0 bd
       0.17258981 0.04733717 -0.016987724 -0.117490895
0000e0 a6 39 27 3d b4 17 07 3e 62 ba a0 bd 5f 38 76 3e
       0.040826462 0.13192636 -0.0784805 0.24044941
0000f0 cc 92 d9 bd 7f c1 2e 3e fb b8 8f bd ee b6 69 bd
       -0.106237024 0.17066 -0.07017704 -0.05705922
000100 e2 c6 33 3c 2d 08 82 bd c3 06 11 3b fa 33 b2 3c
       0.01097271 -0.06349216 0.0022129274 0.0217533
000110 5c 98 fb bc 4d 6a e3 3d 6c 10 b1 3c 3e 13 44 bd
       -0.030712299 0.1110426 0.021614276 -0.047869913
000120 7a 02 c3 bc 8f 7d 10 bd 9a 65 e7 bb 17 5a 42 3d
       -0.023804892 -0.035275992 -0.0070616724 0.047449198
000130 0c 40 31 bd 87 d9 19 bc 1a 49 d2 3d 33 e6 1e be
       -0.04327397 -0.0093902415 0.10267849 -0.15517502
000140 3a f0 a8 bd 3c f2 10 3e 64 20 3c bb 03 4c 17 3e
       -0.082489446 0.14154905 -0.002870583 0.1477509
000150 6c 1e 6f be 28 bd 01 3d 68 87 1d be d7 63 22 3d
       -0.23351449 0.031674534 -0.15383685 0.039645996
000160 1c a1 90 3c b5 57 03 be 7b d1 29 be ac 83 07 3d
       0.017654948 -0.12826426 -0.16583817 0.033084556
000170 b7 4d 67 bd 45 30 6a bd 2c 2f 20 3e 28 f3 1d bd
       -0.0564706 -0.05717494 0.15642995 -0.03856197
000180 de ad c0 3d 23 b5 b8 3c e8 63 9d 3d 96 a8 79 3d
       0.094081625 0.02254731 0.07685071 0.06095179
000190 db a4 b2 3c 75 c1 87 3b 51 c0 e4 3c ef 06 27 3d
       0.021807125 0.004142935 0.027923735 0.040778097
0001a0 2e 12 f5 bb 90 a7 0b bd 25 dc ac 3c f2 77 a3 3c
       -0.007478974 -0.034095347 0.021101067 0.019954655
0001b0 e8 46 ab bd b9 1a 82 3c bb b0 33 bd 98 1f 2c be
       -0.08363134 0.015881883 -0.043869715 -0.16808927
0001c0 b8 d0 25 3d a4 7a cd bc 1a 2d d9 bc b1 cc 7a 3d
       0.040482253 -0.025082894 -0.026510764 0.061230365
0001d0 36 24 02 3e 0d d1 32 3e f6 3d 79 3d de c4 dc bd
       0.12709126 0.17462559 0.060850106 -0.10779737
0001e0 47 85 83 3d 08 f0 40 3d 20 6c 8c bd 4f 37 47 bd
       0.06421905 0.04710391 -0.06856561 -0.04863673
0001f0 63 17 c1 3d fc ca da bd 4c 2b da 3d f1 36 24 3d
       0.09428289 -0.106832474 0.106527895 0.04009146
000200 f5 ea ca 3d 2c 0d 46 bd 90 e3 d1 3c 84 2a 39 be
       0.09908096 -0.048352405 0.025621206 -0.18082625
000210 0e 8a 1e be f8 3f fb 3b 76 b8 d4 3c dd b2 11 bd
       -0.15482351 0.007667538 0.025966864 -0.035570968
000220 b7 e8 4d be 52 d4 57 3d c9 28 fe bb 41 3d 88 bc
       -0.20108305 0.05269272 -0.007756327 -0.01663077
000230 6c e3 04 3e 33 f8 42 be 8b f1 89 3d 8f da c5 3d
       0.1297738 -0.19039993 0.06735524 0.09660827
000240 de 19 92 3d 38 e8 81 bd dc 15 bb bd 92 91 0a be
       0.0713384 -0.0634312 -0.09135029 -0.13532093
000250 6a 2f 4b be 79 47 07 3e 69 20 a0 3d aa f0 36 be
       -0.19842306 0.13210858 0.07818682 -0.17865244
000260 f0 eb dc bc 04 37 5e bd e7 28 05 bd 61 32 53 bd
       -0.026967973 -0.054251686 -0.03250971 -0.051561717
000270 f7 f0 92 bd fb a1 c5 bc 27 2c cb bc 20 7f 9f 3d
       -0.07174867 -0.02412509 -0.024801327 0.07787919
000280 f9 84 21 3d f1 34 20 be 69 c5 24 3d 11 26 26 3d
       0.039433453 -0.15645196 0.040227327 0.040563647
000290 58 3e 2c be cc 3e a0 3d c4 2f 1a 3c cd 0a 49 bc
       -0.16820657 0.078244776 0.009410802 -0.0122706415
0002a0 79 4d 0b bd 18 66 00 bc 72 c3 54 bc 6d c2 47 bc
       -0.03400943 -0.007836841 -0.012986051 -0.012192351
0002b0 93 c4 0d 3e ef 70 d9 bc ac f4 8f bc 59 1a b1 bd
       0.13844518 -0.026543109 -0.017572723 -0.086476035
0002c0 49 5a 7f 3c 1e 3c bb bd 1d 76 15 3c 74 d6 1d 3e
       0.0155854905 -0.09142326 0.009122399 0.15413839
0002d0 22 d7 9b bc ef c7 83 3d e3 20 18 bd f4 d7 e1 bd
       -0.019023482 0.06434619 -0.03714074 -0.11027518
0002e0 ec d7 0c be c8 42 0a 3d 0d 33 80 3c b5 e8 f4 bc
       -0.13754243 0.033755094 0.015649343 -0.02989612
0002f0 c5 3a fe bd 2a 2f 80 bb ca bf 9c 3e 50 ec d7 bd
       -0.12413553 -0.0039118724 0.30615073 -0.1054312
000300 20 88 ef 3b 3f 1a f4 3c 72 4d 66 be a6 e3 fd 3c
       0.0073099285 0.029797671 -0.2249048 0.03099234
000310 ca 13 2c be 4b 21 dc bc d2 ba 3a 3d ca f1 4d bd
       -0.16804424 -0.026871344 0.045588322 -0.050279416
000320 be d5 6e bd 28 49 80 3c ab 4c 00 3e 10 f2 bb bd
       -0.05830931 0.015659884 0.12529247 -0.09177029
000330 cb 34 88 3e 3d fb d6 3d 34 f1 7a 3d 40 bf c7 bd
       0.26602778 0.10497139 0.061265185 -0.09753275
000340 b8 79 e6 3d 58 5f dc bd 0c 42 43 be 1b fa f5 3d
       0.11253685 -0.10760373 -0.19068164 0.120105945
000350 77 5b d1 bd 37 94 3b bd 4b da 85 bc d9 97 19 bd
       -0.10222524 -0.045795646 -0.016339442 -0.03749833
000360 fc e4 2f bd a8 e1 a0 3d 56 50 d6 3d a7 02 c3 bd
       -0.042942986 0.078555405 0.104645416 -0.0952199
000370 13 8f c7 bd d6 bb e9 bd 73 41 5b ba 23 96 d9 bc
       -0.09744086 -0.1141278 -0.00083639397 -0.026560849
000380 1a 85 17 be 9e e5 90 3c 72 4b ba 3c 45 7f 32 bc
       -0.14796868 0.017687615 0.022741053 -0.010894601
000390 9b 5f ed 3c 9c 9b 09 3c 04 7e 8d bc 71 81 64 bc
       0.028976252 0.008398917 -0.017272003 -0.013946877
0003a0 2d fa 22 3c 52 e4 0e 3d 06 5d f6 bc a8 31 2a bc
       0.009947342 0.034885712 -0.030073654 -0.010387816
0003b0 9e 08 b7 3c 08 5b 9c 3c a1 75 16 be c6 73 91 3e
       0.022342976 0.019086376 -0.1469331 0.2840864
0003c0 8f 55 b7 3c 7e 36 b6 3d d0 c2 21 3c 9d 29 a7 bd
       0.022379665 0.08897112 0.009873107 -0.08162234
0003d0 9f 1e ae 3c d3 4b 0b 3d 73 f4 d3 3d 8a ea da bd
       0.021254836 0.03400786 0.10349359 -0.10689266
0003e0 71 cf 2e be a7 1e 14 3d 67 a2 5b bd 7d 74 25 3b
       -0.1707132 0.036162045 -0.053621676 0.0025246434
0003f0 46 16 20 be 05 ae a1 bd 51 0e 67 bc 81 d5 77 ba
       -0.15633497 -0.0789452 -0.014102534 -0.0009454117

network_body._body_endoder.seq_layers.2.bias f4 [128]
000000 e7 a9 21 39 3e e0 7d 39 a9 15 f2 3b 87 5e e2 3c
       0.0001541745 0.00024211497 0.007387836 0.027632965
000010 15 53 c6 3a 99 ff 2b 3b 90 d0 1a 3b b4 a1 d8 3c
       0.0015130962 0.0026244877 0.0023622848 0.026444294
000020 0e a8 a5 bc 86 97 c8 3b ba 30 33 3c 03 85 46 bc
       -0.020221736 0.0061215786 0.01093691 -0.012116673
000030 1a 43 91 3c 2d 26 52 3b 36 1e d4 ba 24 c8 3d 3c
       0.017732192 0.0032066212 -0.001618332 0.011583362
000040 ef 09 08 3c 2b ab 69 3c d2 30 3d 3c 46 90 36 3c
       0.00830315 0.014262001 0.011547284 0.011142796
000050 78 5d 99 bb 64 c8 d6 3b 86 19 01 bb fa cc a6 3c
       -0.004680332 0.00655465 -0.001969905 0.020361412
000060 a4 db 66 3c 3c 0f f8 3b 30 4e cb 3b 91 7f 6e 3c
       0.014090452 0.0075701755 0.006204389 0.014556781
000070 13 f1 23 bb 79 40 5e 3c 28 a0 3c 3c 66 b4 ad b9
       -0.0025015518 0.013565176 0.011512794 -0.0003313154
000080 4e a1 8d 3c 39 18 2e 3c 6c 22 01 3c 0b bd 8d 3c
       0.01728883 0.010625892 0.007881742 0.017302057
000090 55 84 bf 3b 57 f7 29 3b b5 a7 9c bb eb 12 77 3c
       0.0058446326 0.002593478 -0.0047807344 0.015080194
0000a0 84 1c 47 3a 94 87 bb 3c d9 77 c8 bb 5f ee 04 bc
       0.0007595497 0.022891797 -0.0061178026 -0.008113473
0000b0 83 e8 e7 3c b1 8b ed bb 25 f4 e6 bb 14 44 c1 bb
       0.028309112 -0.0072493185 -0.0070481473 -0.005898008
0000c0 dc 3f 71 3b e8 05 56 3b cd 84 a8 3c d4 15 a1 3c
       0.0036811745 0.003265733 0.020571137 0.019663729
0000d0 41 50 3e 3c 44 de 0c 3a 0b c5 a1 3c b8 b9 65 3c
       0.011615814 0.00053736963 0.019747278 0.01402133
0000e0 4a e9 72 3c eb cd bc 3c d0 86 a9 3c c5 73 3d 3c
       0.014826128 0.023047408 0.020694166 0.011563246
0000f0 98 77 e8 bb 77 e7 de bb a2 70 d5 bc c2 07 2e bb
       -0.007094335 -0.006802495 -0.026054684 -0.0026554917
000100 4e 5a 4b 3b 9c 76 5d 3c 33 f1 37 bc 24 64 6b 3c
       0.0031029168 0.013517048 -0.01122694 0.014367137
000110 2e 18 b2 bb 93 32 29 3c 8b db 09 3b ee 97 61 3c
       -0.0054350113 0.010326999 0.0021035399 0.013769133
000120 ac 23 d6 3a 6f 3b 23 3c e5 55 11 bb ac 34 31 39
       0.0016337535 0.009962901 -0.0022176441 0.00016899657
000130 b5 3a d2 3a 1b 18 6e 3c 95 82 51 3c cb 78 92 b7
       0.0016039225 0.014532114 0.012787481 -1.7460805e-05
000140 c0 8d 8c 3c ce fc 87 39 18 8d 0e bb ef aa 8c 3c
       0.017157435 0.0002593756 -0.002175158 0.017171351
000150 cd da 0b bb 20 96 8a bc 9b b9 25 3c a2 dc b8 bb
       -0.0021340132 -0.016917288 0.010115053 -0.005641536
000160 ab 3d 10 3c aa 3b ff 3b 79 c5 f1 ba ac be 71 3b
       0.008803765 0.007789095 -0.0018445692 0.003688733
000170 77 32 7e 3c 59 26 c8 3b 35 3a 40 3c ac 49 d4 3b
       0.015514961 0.006108087 0.011732628 0.006478509
000180 83 29 fd 3a 54 97 75 3c 41 75 91 3b 65 32 50 3c
       0.001931474 0.014989693 0.0044390266 0.0127073275
000190 82 51 a7 3c 0a 0d bb 3b 38 c9 dd bb e9 c3 35 bb
       0.020424608 0.0057083415 -0.006768372 -0.002773518
0001a0 21 d4 01 3c b3 4f 78 3c 55 7e 8e 3c 92 6d ad 3b
       0.007924111 0.0151557205 0.017394224 0.005292603
0001b0 74 d8 1a 3c a7 35 08 3d 8c 07 81 3c 59 b1 9d 3c
       0.0094510205 0.03325429 0.015750669 0.019249605
0001c0 0d be f9 3b e7 27 8f 3b 6f e1 66 3c 67 58 13 bc
       0.007621533 0.0043687704 0.0140918335 -0.008993245
0001d0 69 9f af 3b a7 a3 84 3c a9 b2 ad 3c 22 c8 90 3c
       0.0053595793 0.016191317 0.021203356 0.017673556
0001e0 c6 dc 5f 3c ab fa ee ba f5 0b 6f 3c cc 0d e8 3c
       0.013663476 -0.0018232664 0.014590253 0.028326891
0001f0 d1 d5 1a 3c 85 42 64 3c a1 f8 2e bc 15 9b b3 3a
       0.009450392 0.013931875 -0.010679395 0.0013702834

action_model._continuous_distribution.log_sigma f4 [1, 2]
000000 e9 30 b5 3d ac 13 9d 3d
       0.088472195 0.07669768

action_model._continuous_distribution.mu.weight f4 [2, 128]
000000 70 df 69 bb 48 9e 83 3c ac a5 e8 bc 68 41 2c bd
       -0.0035686158 0.016066685 -0.028399311 -0.042054564
000010 09 0e b8 3c cd 70 16 3d 07 90 34 bd c5 08 88 bd
       0.02246763 0.03672867 -0.044082668 -0.06642298
000020 d1 57 62 bc cf 4b bb 3c 9b 5a 5d bd 20 54 52 3a
       -0.013814882 0.022863297 -0.054041486 0.00080234
000030 f6 f2 c7 3c eb fe b6 3c 38 83 0c 3d 16 55 88 3d
       0.024407845 0.022338351 0.034304827 0.06656854
000040 a2 72 bf 3c d1 e5 5a 3d af ca 99 3d c0 ba 3b bd
       0.02337009 0.053441826 0.07509362 -0.045832396
000050 db fa 10 bd 6a a7 0c bd 0d b9 b8 bc 5b e2 cc bc
       -0.035395484 -0.034339346 -0.022549177 -0.025010278
000060 86 93 52 3d 4e 64 54 3d ae a7 71 3d 43 4c 35 bd
       0.05141022 0.05185347 0.058997802 -0.044262182
000070 35 bb 16 bd 7e eb 8b 3d aa d0 b4 bd 21 ba 65 3c
       -0.03679963 0.06832026 -0.08828862 0.014021427
000080 8a ce d6 bc 2f 59 ad bd c6 bf cb 3c c7 b9 67 3d
       -0.026221532 -0.08464276 0.024871718 0.056573655
000090 34 7d 64 3d e7 2a e3 3c 05 aa 0c bd 9c 77 9e 3c
       0.055783466 0.027730418 -0.03434183 0.019344144
0000a0 db 99 8d 3c 07 18 87 3d 26 55 3b 3c 3f 1f 86 bc
       0.017285278 0.0659638 0.011433875 -0.016372321
0000b0 55 47 58 bd 8e bd 5c bc 9b 3c 9b 3a 51 16 05 3c
       -0.052802403 -0.013472928 0.0011843623 0.008122996
0000c0 1e 69 05 bc 05 8e 03 3d de e7 8c bd af 25 59 3d
       -0.008142738 0.032117862 -0.06880163 0.053014454
0000d0 79 5e 36 3d aa 35 1c bc 4a 94 14 3d b9 44 58 3d
       0.04452369 -0.009534279 0.036274232 0.052799914
0000e0 4c c6 d2 bd 9b b0 f5 bc 90 66 78 bd 7e 3e 59 3d
       -0.102917284 -0.029991439 -0.060644686 0.053038113
0000f0 86 a4 9f 39 01 49 20 bc 8b b5 57 3a 55 f2 b9 bc
       0.00030449423 -0.0097830305 0.0008228651 -0.02269856
000100 c4 3c 43 3d fd 94 cd bc 2a 8e 29 bc 5c 20 5d 3d
       0.047665372 -0.025095457 -0.010348836 0.05398594
000110 0a 41 ac bc f4 1b 8d 3d 3b 6d 10 3d ea 45 1f 3d
       -0.021027107 0.06890097 0.03526042 0.038885035
000120 5c 61 0d 3d f4 f4 63 3d 36 2a 0e bd 21 84 b7 3c
       0.034516677 0.055653527 -0.034708224 0.022401871
000130 45 40 b6 bd 97 7e a2 3d 67 bc 5c 3d a8 17 cd 3c
       -0.08898977 0.07934301 0.053890612 0.025035694
000140 bb 93 24 bd ac b9 b1 3b ca 72 b4 3c 60 85 0e bd
       -0.04017995 0.005423745 0.022027392 -0.034795165
000150 8c 73 ea 3c 2a f8 c4 3b af fd 5c 3d 3c 16 ee bc
       0.02861955 0.006011029 0.05395287 -0.029063337
000160 6e 69 72 bd 48 d8 63 3d 12 fd cf 3b 8b d6 58 3d
       -0.059182577 0.055626184 0.006347307 0.05293898
000170 5a 29 81 bd 75 49 80 bc 49 5f 28 3d 5e d6 be bb
       -0.06306715 -0.015660027 0.041106496 -0.0058238944
000180 48 d5 df 3c d8 94 78 3d 7d a5 3d 3d 55 c4 85 bd
       0.02732338 0.060688823 0.0463004 -0.06531588
000190 1d 0c f4 3c 53 0d f6 3c 34 29 6f bc df b8 12 3d
       0.029790932 0.03003565 -0.014597226 0.035820838
0001a0 f3 1b dc bc 77 19 2a bd 08 2e 5e 3d ce 91 5b 3d
       -0.026868796 -0.04152819 0.054243118 0.053605847
0001b0 e6 e5 85 bd ed 30 93 bd 42 b0 82 bd 51 f8 69 3d
       -0.0653799 -0.07187066 -0.06381275 0.05712158
0001c0 62 37 01 bd 13 37 43 3d 1c d8 cb bc 77 7b 15 bc
       -0.031546958 0.047659945 -0.024883322 -0.009123675
0001d0 0b 98 2f 3d 1f 8b 17 bc 13 67 ff 3c 05 91 38 3d
       0.04286961 -0.009249478 0.03117708 0.045060176
0001e0 43 f9 3e 3d bb e3 9f 3c 59 c8 35 3d a8 74 a2 bc
       0.046624433 0.01951777 0.04438052 -0.019831017
0001f0 ee 9f ed 3c d7 9c 89 bd 93 4f a3 bb 58 4a 75 bc
       0.029006924 -0.06719368 -0.004983851 -0.014971338
000200 46 33 80 3d 9f 6d 91 3d 81 5f e4 bc 95 23 62 bd
       0.0625978 0.07100987 -0.027877571 -0.055209715
000210 42 5a 45 3d 71 57 33 3d e8 70 60 3a 05 11 58 bd
       0.04818178 0.043784562 0.0008561746 -0.052750606
000220 73 0c c3 3c ed 9f cb bb d2 c8 00 bd c3 94 fa 3c
       0.023809647 -0.006214133 -0.031441517 0.030588513
000230 1f 2c 57 3c fc 7b 42 3c a7 9b 1a 3d d0 4b 1a bc
       0.013133078 0.0118703805 0.037746098 -0.009417489
000240 0a d4 0d bd 96 1e 9a 3c 2d 35 5c 3d c0 05 61 bd
       -0.034626044 0.018813413 0.05376165 -0.054937124
000250 eb ee ab 3c ee c6 d3 bc 74 3b 82 3c 49 07 2f bd
       0.020987948 -0.025851693 0.01589749 -0.042731557
000260 4e 5e 75 3c dc d9 50 3c 96 58 f6 3c 7a 64 6b bd
       0.014976097 0.012747254 0.030071538 -0.05746887
000270 ef b1 96 3c 74 48 31 bc 7e 48 19 bb 87 b1 00 bc
       0.018395392 -0.010820497 -0.0023389156 -0.007854826
000280 e6 48 89 bd 25 bb a4 bb a0 af 80 bc 2a 3f 3b 3b
       -0.067033574 -0.005027192 -0.015708745 0.0028571584
000290 16 b5 10 3c 99 af 9c 3c e8 dd aa 3b 07 f8 d8 3b
       0.008832237 0.0191267 0.0052144416 0.006621364
0002a0 af eb 0a bc 6c 9e 4c ba 89 1f 04 3d aa d6 8e ba
       -0.008479043 -0.0007805589 0.032256637 -0.0010897715
0002b0 31 f0 2a bd e2 4f 2b 3c 00 5f db 3c e8 02 82 3c
       -0.04173297 0.010456057 0.026778698 0.015870526
0002c0 14 64 d4 ba b0 88 e4 3c 75 bb 52 bd 0a 40 19 bc
       -0.0016204142 0.027897209 -0.051448304 -0.009353647
0002d0 29 69 59 3d 8f 07 60 bc 3d c6 c9 bc 52 b4 cd 3b
       0.053078804 -0.013673677 -0.02463066 0.0062775994
0002e0 d7 85 ed bb 47 3a 10 bd 59 ff 46 bd f5 2c fa 3c
       -0.007248621 -0.035211828 -0.048583362 0.030539015
0002f0 10 02 c2 3c 27 13 8e 3b 31 b0 ca 3c 70 c8 f6 3c
       0.023682624 0.004335779 0.024742218 0.030124873
000300 62 1f 4b 3d 29 d2 26 bd e7 30 08 3c 7a 67 9f bc
       0.049590476 -0.040727768 0.0083124405 -0.019458521
000310 01 e4 41 3c be 57 93 3c e0 54 9d 3c 34 4b ba 3c
       0.0118341455 0.017986175 0.01920551 0.022740938
000320 da 59 20 3d a5 c3 1c 3d b0 c9 4e 3c ca 7f a1 3b
       0.03914819 0.03827252 0.012621328 0.0049285637
000330 e2 ba 97 3c 52 c5 9e 3c aa 21 96 3c 62 88 b9 ba
       0.01852173 0.019381199 0.0183266 -0.0014155025
000340 ab 09 e9 bc 34 8b 0d bc c7 3b 37 3d 43 a1 3b bd
       -0.028446993 -0.008639146 0.044734742 -0.045808088
000350 2a fd 0a 3d 69 10 9b 3c 7b 65 6c 3b ed dd fb 3c
       0.033932842 0.018928723 0.003607123 0.03074547
000360 da ce e5 bb 3d 6f 36 3d cf 63 de 3c 13 27 2f 3d
       -0.007013184 0.04453968 0.027147202 0.042761873
000370 fd 88 2d bc 9d 83 b7 bb 3f f4 16 bc 07 3c 9e bc
       -0.010591743 -0.0056004063 -0.009213506 -0.019315733
000380 0c a8 43 3d 9e fd e7 3c cc d3 64 3d 3b a9 1d bc
       0.047767684 0.028319176 0.055866048 -0.009622867
000390 9e 5c fa 3b ec 43 da bc ae 09 8b 3d c4 63 0c 3d
       0.0076404354 -0.026643716 0.06788956 0.03427483
0003a0 60 f1 e2 bc 10 84 60 bd 26 34 15 bb 5c f6 55 3d
       -0.027702987 -0.054813445 -0.0022766679 0.0522369
0003b0 33 fa 04 bd 28 ff fe bc ec bc 41 bb 72 13 11 bd
       -0.03246517 -0.031127527 -0.002956207 -0.035418935
0003c0 35 c0 bc bc 60 0d ad 3d 1b 84 12 bd 93 20 97 3c
       -0.02304087 0.08449817 -0.035770517 0.01844815
0003d0 3f 4e 27 3d 91 ae 14 bd 66 d7 17 3d d8 6a 85 bd
       0.040846106 -0.036299292 0.037070654 -0.065145195
0003e0 6f c5 0a 3d 40 72 c3 3c 05 f1 ca bc 0b 43 c9 bc
       0.033879694 0.02385819 -0.02477313 -0.024568101
0003f0 01 63 23 bc 9e 66 09 bd 1a 42 e3 3b a0 db 69 3c
       -0.009972335 -0.03354513 0.00693537 0.014273554

action_model._continuous_distribution.mu.bias f4 [2]
000000 c4 e1 96 3a af 2c 0a bc
       0.0011511375 -0.008433505

action_model._discrete_distribution.branches.0.weight f4 [1, 128]
000000 b2 30 fb ba 53 74 b6 3a 8a 08 82 3c 1e 2e 0a bc
       -0.0019164293 0.0013920165 0.015873212 -0.008433847
000010 73 e2 3f 3c b3 d3 91 bb e5 2e f6 b8 57 c7 7f 3b
       0.011711705 -0.0044502853 -0.00011738929 0.0039028728
000020 84 67 44 3c 11 fa cb 3a 0b d4 72 bc ab d1 06 bb
       0.011987571 0.0015562196 -0.014821063 -0.002057175
000030 32 d7 a2 3c 85 72 90 bb ed 91 2a bc cd a8 6c bb
       0.019878004 -0.004408183 -0.010410768 -0.0036111355
000040 f0 46 f6 3a 57 03 c5 ba fa e6 30 3b b0 e6 d3 ba
       0.0018789452 -0.0015030903 0.0026993142 -0.0016166773
000050 18 41 0d 3c a3 18 49 bc 7d 76 86 bb 28 93 4b bc
       0.008621477 -0.01227394 -0.0041034804 -0.0124252215
000060 2f 6e a0 3b 41 f7 4b bb 17 05 3a 3b bf 93 9a ba
       0.0048959474 -0.0031122717 0.0028384381 -0.0011793299
000070 8f c6 20 3c a5 0a 73 3b e1 c8 97 3b ec 8e c3 bb
       0.009812965 0.0037085202 0.004632101 -0.0059679653
000080 af f1 31 3a 27 48 bc bb a2 58 61 ba e0 b7 ec ba
       0.0006788028 -0.005745906 -0.0008596276 -0.001806017
000090 83 45 37 3c 0f c1 17 bc bf 49 87 3c eb c7 53 bc
       0.0111860065 -0.009262337 0.016514657 -0.012926082
0000a0 2f 5b 52 bc bd 9f b7 3b ff 7b a1 3a 1d b1 38 b9
       -0.012839123 0.005603759 0.0012320279 -0.00017613587
0000b0 72 f3 65 3b 3b 1a 95 3c 97 52 08 3c 1a 1c 33 bb
       0.0035087732 0.018200984 0.008320472 -0.0027329982
0000c0 8a d8 58 bb e7 95 ef bb 33 b0 2c 3c 33 ed 91 bc
       -0.0033088052 -0.007311571 0.010540056 -0.0178133
0000d0 df c4 50 bb 0a 14 b9 bb 51 2a 9e bb 57 c0 f7 3b
       -0.0031855626 -0.005648141 -0.004826822 0.0075607705
0000e0 de a5 bd b9 76 a5 27 3c 15 fd c7 3b c1 cd bc 3a
       -0.0003617247 0.01023232 0.006103168 0.0014404581
0000f0 87 31 8f 3b 9b 14 21 3c 9c 10 87 bc 3b b2 12 bc
       0.004369918 0.009831573 -0.016487412 -0.008953626
000100 8f 37 f1 3a fb ed 9b 3c d0 d0 16 bc 8b b1 ea 39
       0.0018403399 0.019034376 -0.009205058 0.00044764238
000110 ba ea d6 b9 a3 60 0d 3b b7 3d 86 3b 43 d1 3b bc
       -0.00040992146 0.0021572493 0.0040967125 -0.011463466
000120 d2 a4 0f bb 85 1a 3e 3c 40 5d dc bb 78 d0 2b bc
       -0.002191831 0.011603002 -0.0067249835 -0.010486715
000130 ea bb 69 3c 29 26 b2 3b 16 32 b4 3c d6 7c 35 3b
       0.014265994 0.005436678 0.02199654 0.0027692816
000140 b5 7e 77 3b 04 5c 41 3c 7d 9a 96 bb cb b3 b4 bb
       0.0037764732 0.011801723 -0.004596053 -0.005514597
000150 e5 96 4d bc 36 b6 2a 3b 0f 28 b2 bb e3 39 6b 3b
       -0.012548183 0.0026048548 -0.0054369043 0.0035892657
000160 ee 7d 9c 3b 41 12 b9 3a 2a 47 d2 bb 32 8d 96 3b
       0.004775754 0.001411982 -0.006417175 0.0045944685
000170 8f c3 53 3b bb 5d 71 3c f3 1c b0 bc 5a 42 33 bc
       0.0032312607 0.01473182 -0.021498179 -0.010941112
000180 45 4d 16 3c 81 c1 0f bc 9f 7a 00 bd 6c 50 c3 3b
       0.009173696 -0.008774162 -0.03136694 0.005960515
000190 80 6b 8d bc 43 d9 d9 bb 57 8b 9b 3b 98 f9 f9 bb
       -0.017263174 -0.006648214 0.004746835 -0.007628631
0001a0 03 fe 19 bb 1f 95 0c bb ce 1b 88 3b 65 f1 64 3c
       -0.002349735 -0.0021451188 0.004153705 0.013973569
0001b0 59 ae a3 bb ab 55 fc bb 81 df 48 bb 71 e6 a1 bb
       -0.004995149 -0.007700642 -0.0030650797 -0.004940801
0001c0 8c 9c a2 ba a8 72 71 bc 17 67 38 bc 34 52 31 ba
       -0.0012406274 -0.014736809 -0.011255047 -0.00067642634
0001d0 6a aa 7d bb bf 62 a8 bb 12 81 e9 bb 45 f3 ab bb
       -0.003870631 -0.0051387246 -0.007125982 -0.005247506
0001e0 fb 84 54 bc 35 fd e7 bb 1d 86 ee 3b 03 c8 21 bc
       -0.012971158 -0.007079745 0.007279171 -0.009874347
0001f0 47 0f a1 3b 30 6e 54 bc e5 0e 6c bc dc 02 1e 3c
       0.0049151513 -0.012965724 -0.014407848 0.009644236
