results/Creature/CreatureBehavior/CreatureBehavior-666953.pt (torch, 815037 bytes, 39 tensors)

network_body._body_endoder.seq_layers.0.weight f4 [128, 126]
0	0xbdacf43b	-0.08445021
1	0xbd80e47a	-0.062935784
2	0x3da41a12	0.08012785
3	0x3d173914	0.03691967
4	0x3d8d3280	0.06894398
5	0x3d94cc93	0.07265582
6	0xbdd421d4	-0.10358015
7	0xbd807efc	-0.0627422
8	0x3e2dc877	0.16971003
9	0x3d11e886	0.035622142
10	0xbb54c354	-0.0032465057
11	0x3dc8b10c	0.09799394
12	0xbd2762b5	-0.04086562
13	0xbd077826	-0.033073567
14	0x3e0a7399	0.1352066
15	0xbdc8cd7d	-0.09804819
16	0xbcd810ca	-0.026375193
17	0x3de84a0b	0.113422476
18	0x3d87fd76	0.06640141
19	0xbe036c3f	-0.12834261
20	0xbe0b1e97	-0.13585888
21	0x3d7495d9	0.05971322
22	0xbe23ca35	-0.15995105
23	0x3e0b2110	0.13586831
24	0xbd21e0bb	-0.03952096
25	0x3c6c16ea	0.01440976
26	0xbd6152e1	-0.05501068
27	0xbd4f8b4c	-0.050669953
28	0xbe46661d	-0.1937489
29	0x3cfdacac	0.030966125
30	0xbcad6a7f	-0.021168945
31	0xbd2a19d6	-0.041528545
32	0x3e06535e	0.1311774
33	0xbdea22e5	-0.11432437
34	0x3ca4dd45	0.02012504
35	0x3daa7f69	0.08325083
36	0xbd76c620	-0.06024754
37	0x3cf3e111	0.029770406
38	0x3e00ede1	0.12590744
39	0xbe66045c	-0.224626
40	0xbd2acda2	-0.041700013
41	0x3e93cfc9	0.28869465
42	0x3deb032d	0.11475215
43	0x3a882387	0.0010386565
44	0xbcee885c	-0.029117756
45	0x3e205024	0.15655571
46	0x3cf27efd	0.029601568
47	0xbd109ecd	-0.035307694
48	0x3d13df4f	0.036101636
49	0x3d11a1f1	0.03555483
50	0xbb32aa96	-0.0027262322
51	0x3dda58ea	0.1066149
52	0xbca3a229	-0.019974785
53	0x3daa01dd	0.08301137
54	0xbd11e5f2	-0.035619684
55	0x3e0ffa53	0.14060335
56	0x3d835d0d	0.064142324
57	0xbd03dd5b	-0.032193523
58	0x3ca5dacf	0.020245938
59	0x3e1ace7e	0.15117833
60	0xbe06bdc7	-0.13158332
61	0x3c69cf2d	0.014270586
62	0x3da7caa0	0.081929445
63	0xbe1510b1	-0.14557149
64	0xbda8afb5	-0.082366385
65	0xbb9df916	-0.004820953
66	0x3b66a9e8	0.0035196487
67	0xbd7a4ac0	-0.061106443
68	0x3dbece22	0.093166605
69	0x3d1a6794	0.037696436
70	0x3bfef093	0.0077801435
71	0xbde7857c	-0.11304757
72	0x3d959b3d	0.07305
73	0xbd4df714	-0.05028446
74	0xbc0f97ec	-0.008764248
75	0xbe37388c	-0.17892665
76	0xbd5b01cb	-0.053468507
77	0x3e513d2a	0.20433488
78	0x3d480bca	0.048839368
79	0x3d8846d2	0.06654133
80	0x3dca2ba3	0.09871604
81	0xbd915519	-0.07096309
82	0x3d74d5c5	0.05977418
83	0xbc3356a6	-0.010945952
84	0x3d998fb1	0.0749811
85	0x3d910293	0.07080569
86	0x3d2b97a8	0.041892678
87	0xbe95599b	-0.29169926
88	0xbe074202	-0.13208774
89	0x3e1ced35	0.15324862
90	0xbdf0c4f5	-0.117563166
91	0xbd48eabc	-0.049051985
92	0xbcf06bc5	-0.029348264
93	0xbc94873e	-0.018130895
94	0x3d8e9e17	0.06963747
95	0x3da06245	0.078312434
96	0xbdc65b62	-0.09685399
97	0xbd26e876	-0.040749036
98	0xbbb7187b	-0.005587635
99	0xbc29365d	-0.010327903
100	0x3d61aa96	0.055094324
101	0x3d95bf81	0.07311917
102	0xbdeb588f	-0.114915006
103	0x3bf09cc4	0.0073429067
104	0xbc9d996f	-0.019238202
105	0xbe4fb99e	-0.20285651
106	0x3dc64585	0.096812285
107	0x3c5ac06a	0.013351539
108	0xbcbf782e	-0.023372736
109	0x3d8551af	0.065097205
110	0xbda3944d	-0.079872705
111	0xbb10199d	-0.0021987923
112	0xbdd30618	-0.10303897
113	0x3d8c808f	0.06860458
114	0x3e0a7393	0.1352065
115	0x3db072e4	0.08615664
116	0x3d53bda0	0.051694512
117	0xbe039248	-0.1284877
118	0x3ce62422	0.028093401
119	0xbd0b5121	-0.034012917
120	0x3e32f139	0.17474832
121	0xbe42d75f	-0.1902747
122	0xbca06041	-0.019577147
123	0xbcf4949e	-0.029856022
124	0x3c49c486	0.012314921
125	0xbd39307a	-0.045212246
126	0xbe1fea6d	-0.1561677
127	0x3d889672	0.0666932
128	0x3dab0432	0.083504096
129	0xbd378b9b	-0.044810873
130	0xbd992236	-0.07477228
131	0xbd4f5212	-0.050615378
132	0xbe3502c3	-0.17676835
133	0x3cf6d0f4	0.030128933
134	0xbddb4ad5	-0.107076325
135	0x3dd059c7	0.10173374
136	0xbcc8ac01	-0.02449608
137	0x3d8b43e7	0.06800061
138	0xbc67c207	-0.014145381
139	0x3decf9ee	0.11571108
140	0x3ca1f2d3	0.019769108
141	0x3c5601d9	0.013061964
142	0xbdc3b293	-0.09555545
143	0x3da33248	0.07968575
144	0x3d930b85	0.071799316
145	0xbcc80a46	-0.024418961
146	0x3cb74956	0.022373836
147	0xbdbad94b	-0.091234766
148	0xbe1cc318	-0.15308797
149	0xbdea392a	-0.114366844
150	0xbe2dc420	-0.16969347
151	0x3d5fe31f	0.05465996
152	0x3e0c2289	0.13685049
153	0xbd40c487	-0.047062423
154	0x3e14482d	0.14480658
155	0xbcc76254	-0.024338879
156	0xbc307ada	-0.010771478
157	0xbc8d6d0f	-0.017263917
158	0xbdccd392	-0.10001291
159	0x3db08bb3	0.086203955
160	0x3c90277e	0.017596956
161	0x3d6e95b6	0.058248244
162	0x3ce1dd60	0.02757138
163	0x3d13b85d	0.036064494
164	0xbdc2f526	-0.095194146
165	0x3dbf5412	0.09342207
166	0xbc2b7291	-0.0104643265
167	0x3e1f481c	0.15554851
168	0xbd50fb86	-0.05102112
169	0x3ce85788	0.02836205
170	0x3c47fff2	0.012207018
171	0x3d3d038b	0.046145957
172	0xbdb454d5	-0.08805243
173	0xbe0e2dda	-0.13884678
174	0xbd88b3e5	-0.06674937
175	0xbdc40fe4	-0.095733434
176	0x3db4886c	0.08815083
177	0xbd8d5344	-0.06900647
178	0xbc031e0d	-0.00800277
179	0x3d229db3	0.039701175
180	0xbe10e381	-0.14149286
181	0xbcda6def	-0.026663749
182	0x3dd6156f	0.10453307
183	0x3d201295	0.03908022
184	0x3df2b3bd	0.118506886
185	0x3d2e87fa	0.042610146
186	0xbda29d14	-0.079401165
187	0xbdd53dd3	-0.10412183
188	0x3e36446f	0.17799543
189	0x3d8fb6bc	0.07017276
190	0xbd2558c8	-0.04036787
191	0xbb5e6984	-0.0033937404
192	0xbc955d44	-0.01823295
193	0xbd301317	-0.042986955
194	0x3dc2018f	0.094729535
195	0xbdc95e44	-0.09832433
196	0xbd347428	-0.044056088
197	0xbd711f97	-0.058868017
198	0x3d8c992d	0.068651535
199	0x3da1370c	0.078718275
200	0x3e127162	0.14301065
201	0xbe5620f8	-0.20911014
202	0x3e14d8e5	0.14535864
203	0x3d878b80	0.066184044
204	0xbe46957a	-0.19392958
205	0x3dfc577e	0.12321375
206	0x3d1cc00a	0.03826908
207	0x3c1d5252	0.009602146
208	0xbd55bed7	-0.052183952
209	0x3d545eda	0.05184827
210	0x3d66d5b1	0.056356136
211	0xbda7c94c	-0.08192691
212	0x3ce66fd7	0.028129501
213	0x3e221d70	0.15831542
214	0x3cdb9e65	0.026808927
215	0xbdca0c7c	-0.098656625
216	0xbe07089c	-0.13186878
217	0xbd10e772	-0.035376973
218	0x3db68911	0.08912862
219	0xbe0e0aa3	-0.13871245
220	0xbd50a81f	-0.050941583
221	0xbe2f8fdf	-0.17144726
222	0x3ca2db71	0.019880028
223	0x3c909abf	0.017651914
224	0x3dc8bcd5	0.09801642
225	0xbdd54465	-0.10413436
226	0x3d961ffa	0.07330318
227	0xbd23bdaf	-0.03997582
228	0xbe01842d	-0.12648077
229	0x3d067ee6	0.032835864
230	0x3e1853fe	0.1487579
231	0xbdd6e2dc	-0.10492489
232	0x3dbbbff5	0.09167472
233	0x3d04f220	0.03245747
234	0xbdc58ccf	-0.09645998
235	0xbc65e7db	-0.014032329
236	0x3dc8bb1c	0.09801313
237	0xbd64b6fc	-0.05583857
238	0xbd98bdac	-0.07458052
239	0x3d62c326	0.05536189
240	0x3c37603d	0.011192379
241	0xbd363016	-0.044479452
242	0x3c95af9f	0.01827222
243	0x3b25eefe	0.0025319452
244	0x3db91d64	0.09038809
245	0xbd9a0a7f	-0.07521533
246	0xbda3a9ae	-0.07991348
247	0x3d907c74	0.070549875
248	0x3d689de2	0.056791194
249	0x3cd48a9f	0.025945006
250	0xbe195699	-0.1497444
251	0xbcb04e6a	-0.021521766
252	0xbdfb9cbd	-0.12285755
253	0xbce9871f	-0.028506814
254	0x3c65b244	0.014019553
255	0xbea9cda5	-0.33164707

network_body._body_endoder.seq_layers.0.bias f4 [128]
0	0x3c6bcc6a	0.014391998
1	0x3b3e4abd	0.0029036247
2	0x3cbe5707	0.023234857
3	0xbcc3b317	-0.023889108
4	0x3bef2529	0.007298131
5	0xbc155e76	-0.0091167595
6	0x3d054def	0.032545026
7	0x3c791a16	0.015203973
8	0x3b938210	0.0045015886
9	0x3cbac72c	0.02280005
10	0x3b84811e	0.0040437123
11	0x3d6896dd	0.0567845
12	0xbbdc4d4d	-0.006723082
13	0x3d02977f	0.03188276
14	0xbc384651	-0.0112472335
15	0x3c073475	0.008252253
16	0x3b7d514a	0.0038653188
17	0x3bd7f67e	0.0065906635
18	0x3c50804c	0.012725901
19	0x3d11093e	0.035409205
20	0x3ce6cbad	0.028173292
21	0x3c110c4b	0.0088530285
22	0x3bf5cf60	0.0075015277
23	0xbb029336	-0.001992417
24	0x3cfe62da	0.031052995
25	0x3c310d3d	0.010806379
26	0x3ca21a65	0.019787977
27	0x3ca55ee5	0.02018685
28	0xbc29b313	-0.010357636
29	0xbc852196	-0.016251367
30	0x3c76f5cf	0.015073254
31	0x3bb9c624	0.005669372
32	0xbcb24627	-0.021761967
33	0x3c8681fc	0.016419403
34	0xbce4a273	-0.027909493
35	0x3d16d8b9	0.036827777
36	0x3c4015e3	0.011723968
37	0xbcb7fa14	-0.022458114
38	0x3c4906cc	0.012269687
39	0x3bd2665a	0.0064208927
40	0xbaba630c	-0.0014220192
41	0x3c0ac367	0.008469439
42	0x3c36e3aa	0.011162678
43	0x3ca22f4a	0.01979794
44	0x3c8b78a9	0.017025309
45	0x3ccb7d9b	0.024840167
46	0x3c843b09	0.016141431
47	0x3acd7d86	0.0015677668
48	0x3c2abfa8	0.010421671
49	0x3cc25516	0.023722213
50	0x3c80e3e4	0.015733667
51	0x3c29c078	0.0103608295
52	0x3cd6b4e2	0.026209299
53	0x38c2b18f	9.283714e-05
54	0x3be95b76	0.0071214987
55	0x3c85ae83	0.016318565
56	0x3b605b18	0.0034233984
57	0x3c341f59	0.010993802
58	0xbbe1c4ea	-0.006889929
59	0x3c9c23b8	0.01906
60	0x3c2c1015	0.010501881
61	0xbb90c488	-0.0044179596
62	0x3bd8b416	0.006613265
63	0x3a99b6a3	0.0011727404
64	0x3b28e1f2	0.002576944
65	0x3c39fdfc	0.0113520585
66	0x3c085644	0.008321349
67	0x3bfe5c9c	0.0077625047
68	0xbac458c2	-0.0014980065
69	0x3be13b73	0.006873542
70	0x3bc4027c	0.0059817415
71	0x3cd8bcea	0.026457269
72	0xbb4c2162	-0.0031147827
73	0x3c4d34da	0.012524808
74	0x3c337287	0.010952598
75	0x3cfb8f9b	0.030708125
76	0x3bc98a6a	0.0061505334
77	0x3b358e1c	0.0027703112
78	0x3c9f2050	0.019424587
79	0x3c89b1f9	0.016808497
80	0x3baca6cb	0.0052689067
81	0x3af8db8b	0.0018986327
82	0x3c64da5e	0.013968078
83	0x3b7cb19b	0.003855801
84	0x3c435bf8	0.0119237825
85	0x3af4b368	0.001866919
86	0x3bc93f97	0.0061416137
87	0xbc55ea0b	-0.0130562885
88	0x3c9a9bcb	0.018873116
89	0x3be0ccb8	0.006860342
90	0x3c725513	0.014790791
91	0x3c85b52e	0.016321745
92	0xbd0f07fd	-0.034919728
93	0x3c835f7d	0.016036743
94	0x3c1dcdd7	0.009631596
95	0x3ca8af22	0.020591322
96	0x3a59e0cc	0.00083113904
97	0xbbac623c	-0.005260734
98	0x3c6bdedf	0.014396398
99	0x3c33ad52	0.010966616
100	0x3cc40f2e	0.02393302
101	0x3cd8129c	0.026376061
102	0x3c8a1b38	0.016858682
103	0x3c68f8d0	0.014219478
104	0x3cc09bdd	0.023511821
105	0x3b3038f3	0.0026889413
106	0x3af3a30d	0.0018588022
107	0x3b01b94d	0.0019794286
108	0x3aceb5ab	0.0015770694
109	0x3c8f03b3	0.017457819
110	0x3c66d7ad	0.014089507
111	0x3c0d1d29	0.008612909
112	0x3ceba740	0.028766274
113	0x3ba9b124	0.0051785875
114	0x3b136207	0.0022488849
115	0xbcde800f	-0.027160672
116	0x3bb588cf	0.0055399905
117	0x3c0408a3	0.0080587
118	0xbb100bea	-0.0021979758
119	0x3d051a17	0.032495584
120	0xbc938acb	-0.018010518
121	0xbadb0477	-0.0016709705
122	0xbc2a17e2	-0.010381671
123	0xb85f52aa	-5.324433e-05
124	0x3b79afcc	0.0038099168
125	0x3be22cbd	0.006902306
126	0xbb950d4e	-0.004548705
127	0x3c3638b4	0.0111219175

network_body._body_endoder.seq_layers.2.weight f4 [128, 128]
0	0xbd9393d8	-0.07205933
1	0xbca99e39	-0.02070533
2	0x3d39a139	0.04531977
3	0xbccde8f4	-0.025135495
4	0xbdc5d317	-0.09659403
5	0x3d8a97fb	0.06767269
6	0xbdb1c24d	-0.08679638
7	0xbd034701	-0.032050136
8	0xbd4397b9	-0.047752116
9	0xbcb2a218	-0.021805808
10	0x3d1ab746	0.03777244
11	0x3da788f1	0.081804164
12	0x3d79f031	0.06102008
13	0x3d32c528	0.043645054
14	0x3d72c60e	0.05927091
15	0x3da634e2	0.08115555
16	0xbac1868a	-0.0014764827
17	0xbe1b01cc	-0.15137404
18	0xbe0d8838	-0.13821495
19	0xbb0d975c	-0.002160511
20	0xbce68cfa	-0.028143395
21	0x3dad512a	0.084627464
22	0xba9006bc	-0.0010988335
23	0xbe4c0890	-0.19925141
24	0xbd052730	-0.032508075
25	0xbd8f0b6f	-0.06984603
26	0x3e57accf	0.21062015
27	0xbe195f64	-0.14977795
28	0x3dc75117	0.097322635
29	0x3d85cf50	0.06533682
30	0x3dd0ad4b	0.10189303
31	0xbd1a61ee	-0.03769105
32	0xbd053077	-0.032516923
33	0xbc1a47dc	-0.009416547
34	0xbdd371fe	-0.10324477
35	0xbd634544	-0.05548598
36	0x3ba8d0a9	0.0051518274
37	0x3e2bd1a6	0.16779193
38	0xbd0be17b	-0.03415058
39	0xbe49952e	-0.19685814
40	0x3d8ad429	0.067787476
41	0x3d665758	0.05623564
42	0xbcf11f5a	-0.029433895
43	0xbd4b1a4e	-0.049585633
44	0xbc6061e9	-0.013695219
45	0xbcce8728	-0.025210932
46	0x3d67a9fd	0.056558598
47	0x3c2a524e	0.0103955995
48	0xbd4b16af	-0.04958218
49	0xbe0c4e62	-0.13701776
50	0xbded1285	-0.11575798
51	0xbdd4b46a	-0.10385974
52	0x3e30bb62	0.17258981
53	0x3d41e49f	0.04733717
54	0xbc8b29d7	-0.016987724
55	0xbdf09f11	-0.117490895
56	0x3d2739a6	0.040826462
57	0x3e0717b4	0.13192636
58	0xbda0ba62	-0.0784805
59	0x3e76385f	0.24044941
60	0xbdd992cc	-0.106237024
61	0x3e2ec17f	0.17066
62	0xbd8fb8fb	-0.07017704
63	0xbd69b6ee	-0.05705922
64	0x3c33c6e2	0.01097271
65	0xbd82082d	-0.06349216
66	0x3b1106c3	0.0022129274
67	0x3cb233fa	0.0217533
68	0xbcfb985c	-0.030712299
69	0x3de36a4d	0.1110426
70	0x3cb1106c	0.021614276
71	0xbd44133e	-0.047869913
72	0xbcc3027a	-0.023804892
73	0xbd107d8f	-0.035275992
74	0xbbe7659a	-0.0070616724
75	0x3d425a17	0.047449198
76	0xbd31400c	-0.04327397
77	0xbc19d987	-0.0093902415
78	0x3dd2491a	0.10267849
79	0xbe1ee633	-0.15517502
80	0xbda8f03a	-0.082489446
81	0x3e10f23c	0.14154905
82	0xbb3c2064	-0.002870583
83	0x3e174c03	0.1477509
84	0xbe6f1e6c	-0.23351449
85	0x3d01bd28	0.031674534
86	0xbe1d8768	-0.15383685
87	0x3d2263d7	0.039645996
88	0x3c90a11c	0.017654948
89	0xbe0357b5	-0.12826426
90	0xbe29d17b	-0.16583817
91	0x3d0783ac	0.033084556
92	0xbd674db7	-0.0564706
93	0xbd6a3045	-0.05717494
94	0x3e202f2c	0.15642995
95	0xbd1df328	-0.03856197
96	0x3dc0adde	0.094081625
97	0x3cb8b523	0.02254731
98	0x3d9d63e8	0.07685071
99	0x3d79a896	0.06095179
100	0x3cb2a4db	0.021807125
101	0x3b87c175	0.004142935
102	0x3ce4c051	0.027923735
103	0x3d2706ef	0.040778097
104	0xbbf5122e	-0.007478974
105	0xbd0ba790	-0.034095347
106	0x3cacdc25	0.021101067
107	0x3ca377f2	0.019954655
108	0xbdab46e8	-0.08363134
109	0x3c821ab9	0.015881883
110	0xbd33b0bb	-0.043869715
111	0xbe2c1f98	-0.16808927
112	0x3d25d0b8	0.040482253
113	0xbccd7aa4	-0.025082894
114	0xbcd92d1a	-0.026510764
115	0x3d7accb1	0.061230365
116	0x3e022436	0.12709126
117	0x3e32d10d	0.17462559
118	0x3d793df6	0.060850106
119	0xbddcc4de	-0.10779737
120	0x3d838547	0.06421905
121	0x3d40f008	0.04710391
122	0xbd8c6c20	-0.06856561
123	0xbd47374f	-0.04863673
124	0x3dc11763	0.09428289
125	0xbddacafc	-0.106832474
126	0x3dda2b4c	0.106527895
127	0x3d2436f1	0.04009146
128	0x3dcaeaf5	0.09908096
129	0xbd460d2c	-0.048352405
130	0x3cd1e390	0.025621206
131	0xbe392a84	-0.18082625
132	0xbe1e8a0e	-0.15482351
133	0x3bfb3ff8	0.007667538
134	0x3cd4b876	0.025966864
135	0xbd11b2dd	-0.035570968
136	0xbe4de8b7	-0.20108305
137	0x3d57d452	0.05269272
138	0xbbfe28c9	-0.007756327
139	0xbc883d41	-0.01663077
140	0x3e04e36c	0.1297738
141	0xbe42f833	-0.19039993
142	0x3d89f18b	0.06735524
143	0x3dc5da8f	0.09660827
144	0x3d9219de	0.0713384
145	0xbd81e838	-0.0634312
146	0xbdbb15dc	-0.09135029
147	0xbe0a9192	-0.13532093
148	0xbe4b2f6a	-0.19842306
149	0x3e074779	0.13210858
150	0x3da02069	0.07818682
151	0xbe36f0aa	-0.17865244
152	0xbcdcebf0	-0.026967973
153	0xbd5e3704	-0.054251686
154	0xbd0528e7	-0.03250971
155	0xbd533261	-0.051561717
156	0xbd92f0f7	-0.07174867
157	0xbcc5a1fb	-0.02412509
158	0xbccb2c27	-0.024801327
159	0x3d9f7f20	0.07787919
160	0x3d2184f9	0.039433453
161	0xbe2034f1	-0.15645196
162	0x3d24c569	0.040227327
163	0x3d262611	0.040563647
164	0xbe2c3e58	-0.16820657
165	0x3da03ecc	0.078244776
166	0x3c1a2fc4	0.009410802
167	0xbc490acd	-0.0122706415
168	0xbd0b4d79	-0.03400943
169	0xbc006618	-0.007836841
170	0xbc54c372	-0.012986051
171	0xbc47c26d	-0.012192351
172	0x3e0dc493	0.13844518
173	0xbcd970ef	-0.026543109
174	0xbc8ff4ac	-0.017572723
175	0xbdb11a59	-0.086476035
176	0x3c7f5a49	0.0155854905
177	0xbdbb3c1e	-0.09142326
178	0x3c15761d	0.009122399
179	0x3e1dd674	0.15413839
180	0xbc9bd722	-0.019023482
181	0x3d83c7ef	0.06434619
182	0xbd1820e3	-0.03714074
183	0xbde1d7f4	-0.11027518
184	0xbe0cd7ec	-0.13754243
185	0x3d0a42c8	0.033755094
186	0x3c80330d	0.015649343
187	0xbcf4e8b5	-0.02989612
188	0xbdfe3ac5	-0.12413553
189	0xbb802f2a	-0.0039118724
190	0x3e9cbfca	0.30615073
191	0xbdd7ec50	-0.1054312
192	0x3bef8820	0.0073099285
193	0x3cf41a3f	0.029797671
194	0xbe664d72	-0.2249048
195	0x3cfde3a6	0.03099234
196	0xbe2c13ca	-0.16804424
197	0xbcdc214b	-0.026871344
198	0x3d3abad2	0.045588322
199	0xbd4df1ca	-0.050279416
200	0xbd6ed5be	-0.05830931
201	0x3c804928	0.015659884
202	0x3e004cab	0.12529247
203	0xbdbbf210	-0.09177029
204	0x3e8834cb	0.26602778
205	0x3dd6fb3d	0.10497139
206	0x3d7af134	0.061265185
207	0xbdc7bf40	-0.09753275
208	0x3de679b8	0.11253685
209	0xbddc5f58	-0.10760373
210	0xbe43420c	-0.19068164
211	0x3df5fa1b	0.120105945
212	0xbdd15b77	-0.10222524
213	0xbd3b9437	-0.045795646
214	0xbc85da4b	-0.016339442
215	0xbd1997d9	-0.03749833
216	0xbd2fe4fc	-0.042942986
217	0x3da0e1a8	0.078555405
218	0x3dd65056	0.104645416
219	0xbdc302a7	-0.0952199
220	0xbdc78f13	-0.09744086
221	0xbde9bbd6	-0.1141278
222	0xba5b4173	-0.00083639397
223	0xbcd99623	-0.026560849
224	0xbe17851a	-0.14796868
225	0x3c90e59e	0.017687615
226	0x3cba4b72	0.022741053
227	0xbc327f45	-0.010894601
228	0x3ced5f9b	0.028976252
229	0x3c099b9c	0.008398917
230	0xbc8d7e04	-0.017272003
231	0xbc648171	-0.013946877
232	0x3c22fa2d	0.009947342
233	0x3d0ee452	0.034885712
234	0xbcf65d06	-0.030073654
235	0xbc2a31a8	-0.010387816
236	0x3cb7089e	0.022342976
237	0x3c9c5b08	0.019086376
238	0xbe1675a1	-0.1469331
239	0x3e9173c6	0.2840864
240	0x3cb7558f	0.022379665
241	0x3db6367e	0.08897112
242	0x3c21c2d0	0.009873107
243	0xbda7299d	-0.08162234
244	0x3cae1e9f	0.021254836
245	0x3d0b4bd3	0.03400786
246	0x3dd3f473	0.10349359
247	0xbddaea8a	-0.10689266
248	0xbe2ecf71	-0.1707132
249	0x3d141ea7	0.036162045
250	0xbd5ba267	-0.053621676
251	0x3b25747d	0.0025246434
252	0xbe201646	-0.15633497
253	0xbda1ae05	-0.0789452
254	0xbc670e51	-0.014102534
255	0xba77d581	-0.0009454117

network_body._body_endoder.seq_layers.2.bias f4 [128]
0	0x3921a9e7	0.0001541745
1	0x397de03e	0.00024211497
2	0x3bf215a9	0.007387836
3	0x3ce25e87	0.027632965
4	0x3ac65315	0.0015130962
5	0x3b2bff99	0.0026244877
6	0x3b1ad090	0.0023622848
7	0x3cd8a1b4	0.026444294
8	0xbca5a80e	-0.020221736
9	0x3bc89786	0.0061215786
10	0x3c3330ba	0.01093691
11	0xbc468503	-0.012116673
12	0x3c91431a	0.017732192
13	0x3b52262d	0.0032066212
14	0xbad41e36	-0.001618332
15	0x3c3dc824	0.011583362
16	0x3c0809ef	0.00830315
17	0x3c69ab2b	0.014262001
18	0x3c3d30d2	0.011547284
19	0x3c369046	0.011142796
20	0xbb995d78	-0.004680332
21	0x3bd6c864	0.00655465
22	0xbb011986	-0.001969905
23	0x3ca6ccfa	0.020361412
24	0x3c66dba4	0.014090452
25	0x3bf80f3c	0.0075701755
26	0x3bcb4e30	0.006204389
27	0x3c6e7f91	0.014556781
28	0xbb23f113	-0.0025015518
29	0x3c5e4079	0.013565176
30	0x3c3ca028	0.011512794
31	0xb9adb466	-0.0003313154
32	0x3c8da14e	0.01728883
33	0x3c2e1839	0.010625892
34	0x3c01226c	0.007881742
35	0x3c8dbd0b	0.017302057
36	0x3bbf8455	0.0058446326
37	0x3b29f757	0.002593478
38	0xbb9ca7b5	-0.0047807344
39	0x3c7712eb	0.015080194
40	0x3a471c84	0.0007595497
41	0x3cbb8794	0.022891797
42	0xbbc877d9	-0.0061178026
43	0xbc04ee5f	-0.008113473
44	0x3ce7e883	0.028309112
45	0xbbed8bb1	-0.0072493185
46	0xbbe6f425	-0.0070481473
47	0xbbc14414	-0.005898008
48	0x3b713fdc	0.0036811745
49	0x3b5605e8	0.003265733
50	0x3ca884cd	0.020571137
51	0x3ca115d4	0.019663729
52	0x3c3e5041	0.011615814
53	0x3a0cde44	0.00053736963
54	0x3ca1c50b	0.019747278
55	0x3c65b9b8	0.01402133
56	0x3c72e94a	0.014826128
57	0x3cbccdeb	0.023047408
58	0x3ca986d0	0.020694166
59	0x3c3d73c5	0.011563246
60	0xbbe87798	-0.007094335
61	0xbbdee777	-0.006802495
62	0xbcd570a2	-0.026054684
63	0xbb2e07c2	-0.0026554917
64	0x3b4b5a4e	0.0031029168
65	0x3c5d769c	0.013517048
66	0xbc37f133	-0.01122694
67	0x3c6b6424	0.014367137
68	0xbbb2182e	-0.0054350113
69	0x3c293293	0.010326999
70	0x3b09db8b	0.0021035399
71	0x3c6197ee	0.013769133
72	0x3ad623ac	0.0016337535
73	0x3c233b6f	0.009962901
74	0xbb1155e5	-0.0022176441
75	0x393134ac	0.00016899657
76	0x3ad23ab5	0.0016039225
77	0x3c6e181b	0.014532114
78	0x3c518295	0.012787481
79	0xb79278cb	-1.7460805e-05
80	0x3c8c8dc0	0.017157435
81	0x3987fcce	0.0002593756
82	0xbb0e8d18	-0.002175158
83	0x3c8caaef	0.017171351
84	0xbb0bdacd	-0.0021340132
85	0xbc8a9620	-0.016917288
86	0x3c25b99b	0.010115053
87	0xbbb8dca2	-0.005641536
88	0x3c103dab	0.008803765
89	0x3bff3baa	0.007789095
90	0xbaf1c579	-0.0018445692
91	0x3b71beac	0.003688733
92	0x3c7e3277	0.015514961
93	0x3bc82659	0.006108087
94	0x3c403a35	0.011732628
95	0x3bd449ac	0.006478509
96	0x3afd2983	0.001931474
97	0x3c759754	0.014989693
98	0x3b917541	0.0044390266
99	0x3c503265	0.0127073275
100	0x3ca75182	0.020424608
101	0x3bbb0d0a	0.0057083415
102	0xbbddc938	-0.006768372
103	0xbb35c3e9	-0.002773518
104	0x3c01d421	0.007924111
105	0x3c784fb3	0.0151557205
106	0x3c8e7e55	0.017394224
107	0x3bad6d92	0.005292603
108	0x3c1ad874	0.0094510205
109	0x3d0835a7	0.03325429
110	0x3c81078c	0.015750669
111	0x3c9db159	0.019249605
112	0x3bf9be0d	0.007621533
113	0x3b8f27e7	0.0043687704
114	0x3c66e16f	0.0140918335
115	0xbc135867	-0.008993245
116	0x3baf9f69	0.0053595793
117	0x3c84a3a7	0.016191317
118	0x3cadb2a9	0.021203356
119	0x3c90c822	0.017673556
120	0x3c5fdcc6	0.013663476
121	0xbaeefaab	-0.0018232664
122	0x3c6f0bf5	0.014590253
123	0x3ce80dcc	0.028326891
124	0x3c1ad5d1	0.009450392
125	0x3c644285	0.013931875
126	0xbc2ef8a1	-0.010679395
127	0x3ab39b15	0.0013702834

action_model._continuous_distribution.log_sigma f4 [1, 2]
0	0x3db530e9	0.088472195
1	0x3d9d13ac	0.07669768

action_model._continuous_distribution.mu.weight f4 [2, 128]
0	0xbb69df70	-0.0035686158
1	0x3c839e48	0.016066685
2	0xbce8a5ac	-0.028399311
3	0xbd2c4168	-0.042054564
4	0x3cb80e09	0.02246763
5	0x3d1670cd	0.03672867
6	0xbd349007	-0.044082668
7	0xbd8808c5	-0.06642298
8	0xbc6257d1	-0.013814882
9	0x3cbb4bcf	0.022863297
10	0xbd5d5a9b	-0.054041486
11	0x3a525420	0.00080234
12	0x3cc7f2f6	0.024407845
13	0x3cb6feeb	0.022338351
14	0x3d0c8338	0.034304827
15	0x3d885516	0.06656854
16	0x3cbf72a2	0.02337009
17	0x3d5ae5d1	0.053441826
18	0x3d99caaf	0.07509362
19	0xbd3bbac0	-0.045832396
20	0xbd10fadb	-0.035395484
21	0xbd0ca76a	-0.034339346
22	0xbcb8b90d	-0.022549177
23	0xbccce25b	-0.025010278
24	0x3d529386	0.05141022
25	0x3d54644e	0.05185347
26	0x3d71a7ae	0.058997802
27	0xbd354c43	-0.044262182
28	0xbd16bb35	-0.03679963
29	0x3d8beb7e	0.06832026
30	0xbdb4d0aa	-0.08828862
31	0x3c65ba21	0.014021427
32	0xbcd6ce8a	-0.026221532
33	0xbdad592f	-0.08464276
34	0x3ccbbfc6	0.024871718
35	0x3d67b9c7	0.056573655
36	0x3d647d34	0.055783466
37	0x3ce32ae7	0.027730418
38	0xbd0caa05	-0.03434183
39	0x3c9e779c	0.019344144
40	0x3c8d99db	0.017285278
41	0x3d871807	0.0659638
42	0x3c3b5526	0.011433875
43	0xbc861f3f	-0.016372321
44	0xbd584755	-0.052802403
45	0xbc5cbd8e	-0.013472928
46	0x3a9b3c9b	0.0011843623
47	0x3c051651	0.008122996
48	0xbc05691e	-0.008142738
49	0x3d038e05	0.032117862
50	0xbd8ce7de	-0.06880163
51	0x3d5925af	0.053014454
52	0x3d365e79	0.04452369
53	0xbc1c35aa	-0.009534279
54	0x3d14944a	0.036274232
55	0x3d5844b9	0.052799914
56	0xbdd2c64c	-0.102917284
57	0xbcf5b09b	-0.029991439
58	0xbd786690	-0.060644686
59	0x3d593e7e	0.053038113
60	0x399fa486	0.00030449423
61	0xbc204901	-0.0097830305
62	0x3a57b58b	0.0008228651
63	0xbcb9f255	-0.02269856
64	0x3d433cc4	0.047665372
65	0xbccd94fd	-0.025095457
66	0xbc298e2a	-0.010348836
67	0x3d5d205c	0.05398594
68	0xbcac410a	-0.021027107
69	0x3d8d1bf4	0.06890097
70	0x3d106d3b	0.03526042
71	0x3d1f45ea	0.038885035
72	0x3d0d615c	0.034516677
73	0x3d63f4f4	0.055653527
74	0xbd0e2a36	-0.034708224
75	0x3cb78421	0.022401871
76	0xbdb64045	-0.08898977
77	0x3da27e97	0.07934301
78	0x3d5cbc67	0.053890612
79	0x3ccd17a8	0.025035694
80	0xbd2493bb	-0.04017995
81	0x3bb1b9ac	0.005423745
82	0x3cb472ca	0.022027392
83	0xbd0e8560	-0.034795165
84	0x3cea738c	0.02861955
85	0x3bc4f82a	0.006011029
86	0x3d5cfdaf	0.05395287
87	0xbcee163c	-0.029063337
88	0xbd72696e	-0.059182577
89	0x3d63d848	0.055626184
90	0x3bcffd12	0.006347307
91	0x3d58d68b	0.05293898
92	0xbd81295a	-0.06306715
93	0xbc804975	-0.015660027
94	0x3d285f49	0.041106496
95	0xbbbed65e	-0.0058238944
96	0x3cdfd548	0.02732338
97	0x3d7894d8	0.060688823
98	0x3d3da57d	0.0463004
99	0xbd85c455	-0.06531588
100	0x3cf40c1d	0.029790932
101	0x3cf60d53	0.03003565
102	0xbc6f2934	-0.014597226
103	0x3d12b8df	0.035820838
104	0xbcdc1bf3	-0.026868796
105	0xbd2a1977	-0.04152819
106	0x3d5e2e08	0.054243118
107	0x3d5b91ce	0.053605847
108	0xbd85e5e6	-0.0653799
109	0xbd9330ed	-0.07187066
110	0xbd82b042	-0.06381275
111	0x3d69f851	0.05712158
112	0xbd013762	-0.031546958
113	0x3d433713	0.047659945
114	0xbccbd81c	-0.024883322
115	0xbc157b77	-0.009123675
116	0x3d2f980b	0.04286961
117	0xbc178b1f	-0.009249478
118	0x3cff6713	0.03117708
119	0x3d389105	0.045060176
120	0x3d3ef943	0.046624433
121	0x3c9fe3bb	0.01951777
122	0x3d35c859	0.04438052
123	0xbca274a8	-0.019831017
124	0x3ced9fee	0.029006924
125	0xbd899cd7	-0.06719368
126	0xbba34f93	-0.004983851
127	0xbc754a58	-0.014971338
128	0x3d803346	0.0625978
129	0x3d916d9f	0.07100987
130	0xbce45f81	-0.027877571
131	0xbd622395	-0.055209715
132	0x3d455a42	0.04818178
133	0x3d335771	0.043784562
134	0x3a6070e8	0.0008561746
135	0xbd581105	-0.052750606
136	0x3cc30c73	0.023809647
137	0xbbcb9fed	-0.006214133
138	0xbd00c8d2	-0.031441517
139	0x3cfa94c3	0.030588513
140	0x3c572c1f	0.013133078
141	0x3c427bfc	0.0118703805
142	0x3d1a9ba7	0.037746098
143	0xbc1a4bd0	-0.009417489
144	0xbd0dd40a	-0.034626044
145	0x3c9a1e96	0.018813413
146	0x3d5c352d	0.05376165
147	0xbd6105c0	-0.054937124
148	0x3cabeeeb	0.020987948
149	0xbcd3c6ee	-0.025851693
150	0x3c823b74	0.01589749
151	0xbd2f0749	-0.042731557
152	0x3c755e4e	0.014976097
153	0x3c50d9dc	0.012747254
154	0x3cf65896	0.030071538
155	0xbd6b647a	-0.05746887
156	0x3c96b1ef	0.018395392
157	0xbc314874	-0.010820497
158	0xbb19487e	-0.0023389156
159	0xbc00b187	-0.007854826
160	0xbd8948e6	-0.067033574
161	0xbba4bb25	-0.005027192
162	0xbc80afa0	-0.015708745
163	0x3b3b3f2a	0.0028571584
164	0x3c10b516	0.008832237
165	0x3c9caf99	0.0191267
166	0x3baadde8	0.0052144416
167	0x3bd8f807	0.006621364
168	0xbc0aebaf	-0.008479043
169	0xba4c9e6c	-0.0007805589
170	0x3d041f89	0.032256637
171	0xba8ed6aa	-0.0010897715
172	0xbd2af031	-0.04173297
173	0x3c2b4fe2	0.010456057
174	0x3cdb5f00	0.026778698
175	0x3c8202e8	0.015870526
176	0xbad46414	-0.0016204142
177	0x3ce488b0	0.027897209
178	0xbd52bb75	-0.051448304
179	0xbc19400a	-0.009353647
180	0x3d596929	0.053078804
181	0xbc60078f	-0.013673677
182	0xbcc9c63d	-0.02463066
183	0x3bcdb452	0.0062775994
184	0xbbed85d7	-0.007248621
185	0xbd103a47	-0.035211828
186	0xbd46ff59	-0.048583362
187	0x3cfa2cf5	0.030539015
188	0x3cc20210	0.023682624
189	0x3b8e1327	0.004335779
190	0x3ccab031	0.024742218
191	0x3cf6c870	0.030124873
192	0x3d4b1f62	0.049590476
193	0xbd26d229	-0.040727768
194	0x3c0830e7	0.0083124405
195	0xbc9f677a	-0.019458521
196	0x3c41e401	0.0118341455
197	0x3c9357be	0.017986175
198	0x3c9d54e0	0.01920551
199	0x3cba4b34	0.022740938
200	0x3d2059da	0.03914819
201	0x3d1cc3a5	0.03827252
202	0x3c4ec9b0	0.012621328
203	0x3ba17fca	0.0049285637
204	0x3c97bae2	0.01852173
205	0x3c9ec552	0.019381199
206	0x3c9621aa	0.0183266
207	0xbab98862	-0.0014155025
208	0xbce909ab	-0.028446993
209	0xbc0d8b34	-0.008639146
210	0x3d373bc7	0.044734742
211	0xbd3ba143	-0.045808088
212	0x3d0afd2a	0.033932842
213	0x3c9b1069	0.018928723
214	0x3b6c657b	0.003607123
215	0x3cfbdded	0.03074547
216	0xbbe5ceda	-0.007013184
217	0x3d366f3d	0.04453968
218	0x3cde63cf	0.027147202
219	0x3d2f2713	0.042761873
220	0xbc2d88fd	-0.010591743
221	0xbbb7839d	-0.0056004063
222	0xbc16f43f	-0.009213506
223	0xbc9e3c07	-0.019315733
224	0x3d43a80c	0.047767684
225	0x3ce7fd9e	0.028319176
226	0x3d64d3cc	0.055866048
227	0xbc1da93b	-0.009622867
228	0x3bfa5c9e	0.0076404354
229	0xbcda43ec	-0.026643716
230	0x3d8b09ae	0.06788956
231	0x3d0c63c4	0.03427483
232	0xbce2f160	-0.027702987
233	0xbd608410	-0.054813445
234	0xbb153426	-0.0022766679
235	0x3d55f65c	0.0522369
236	0xbd04fa33	-0.03246517
237	0xbcfeff28	-0.031127527
238	0xbb41bcec	-0.002956207
239	0xbd111372	-0.035418935
240	0xbcbcc035	-0.02304087
241	0x3dad0d60	0.08449817
242	0xbd12841b	-0.035770517
243	0x3c972093	0.01844815
244	0x3d274e3f	0.040846106
245	0xbd14ae91	-0.036299292
246	0x3d17d766	0.037070654
247	0xbd856ad8	-0.065145195
248	0x3d0ac56f	0.033879694
249	0x3cc37240	0.02385819
250	0xbccaf105	-0.02477313
251	0xbcc9430b	-0.024568101
252	0xbc236301	-0.009972335
253	0xbd09669e	-0.03354513
254	0x3be3421a	0.00693537
255	0x3c69dba0	0.014273554

action_model._continuous_distribution.mu.bias f4 [2]
0	0x3a96e1c4	0.0011511375
1	0xbc0a2caf	-0.008433505

action_model._discrete_distribution.branches.0.weight f4 [1, 128]
0	0xbafb30b2	-0.0019164293
1	0x3ab67453	0.0013920165
2	0x3c82088a	0.015873212
3	0xbc0a2e1e	-0.008433847
4	0x3c3fe273	0.011711705
5	0xbb91d3b3	-0.0044502853
6	0xb8f62ee5	-0.00011738929
7	0x3b7fc757	0.0039028728
8	0x3c446784	0.011987571
9	0x3acbfa11	0.0015562196
10	0xbc72d40b	-0.014821063
11	0xbb06d1ab	-0.002057175
12	0x3ca2d732	0.019878004
13	0xbb907285	-0.004408183
14	0xbc2a91ed	-0.010410768
15	0xbb6ca8cd	-0.0036111355
16	0x3af646f0	0.0018789452
17	0xbac50357	-0.0015030903
18	0x3b30e6fa	0.0026993142
19	0xbad3e6b0	-0.0016166773
20	0x3c0d4118	0.008621477
21	0xbc4918a3	-0.01227394
22	0xbb86767d	-0.0041034804
23	0xbc4b9328	-0.0124252215
24	0x3ba06e2f	0.0048959474
25	0xbb4bf741	-0.0031122717
26	0x3b3a0517	0.0028384381
27	0xba9a93bf	-0.0011793299
28	0x3c20c68f	0.009812965
29	0x3b730aa5	0.0037085202
30	0x3b97c8e1	0.004632101
31	0xbbc38eec	-0.0059679653
32	0x3a31f1af	0.0006788028
33	0xbbbc4827	-0.005745906
34	0xba6158a2	-0.0008596276
35	0xbaecb7e0	-0.001806017
36	0x3c374583	0.0111860065
37	0xbc17c10f	-0.009262337
38	0x3c8749bf	0.016514657
39	0xbc53c7eb	-0.012926082
40	0xbc525b2f	-0.012839123
41	0x3bb79fbd	0.005603759
42	0x3aa17bff	0.0012320279
43	0xb938b11d	-0.00017613587
44	0x3b65f372	0.0035087732
45	0x3c951a3b	0.018200984
46	0x3c085297	0.008320472
47	0xbb331c1a	-0.0027329982
48	0xbb58d88a	-0.0033088052
49	0xbbef95e7	-0.007311571
50	0x3c2cb033	0.010540056
51	0xbc91ed33	-0.0178133
52	0xbb50c4df	-0.0031855626
53	0xbbb9140a	-0.005648141
54	0xbb9e2a51	-0.004826822
55	0x3bf7c057	0.0075607705
56	0xb9bda5de	-0.0003617247
57	0x3c27a576	0.01023232
58	0x3bc7fd15	0.006103168
59	0x3abccdc1	0.0014404581
60	0x3b8f3187	0.004369918
61	0x3c21149b	0.009831573
62	0xbc87109c	-0.016487412
63	0xbc12b23b	-0.008953626
64	0x3af1378f	0.0018403399
65	0x3c9bedfb	0.019034376
66	0xbc16d0d0	-0.009205058
67	0x39eab18b	0.00044764238
68	0xb9d6eaba	-0.00040992146
69	0x3b0d60a3	0.0021572493
70	0x3b863db7	0.0040967125
71	0xbc3bd143	-0.011463466
72	0xbb0fa4d2	-0.002191831
73	0x3c3e1a85	0.011603002
74	0xbbdc5d40	-0.0067249835
75	0xbc2bd078	-0.010486715
76	0x3c69bbea	0.014265994
77	0x3bb22629	0.005436678
78	0x3cb43216	0.02199654
79	0x3b357cd6	0.0027692816
80	0x3b777eb5	0.0037764732
81	0x3c415c04	0.011801723
82	0xbb969a7d	-0.004596053
83	0xbbb4b3cb	-0.005514597
84	0xbc4d96e5	-0.012548183
85	0x3b2ab636	0.0026048548
86	0xbbb2280f	-0.0054369043
87	0x3b6b39e3	0.0035892657
88	0x3b9c7dee	0.004775754
89	0x3ab91241	0.001411982
90	0xbbd2472a	-0.006417175
91	0x3b968d32	0.0045944685
92	0x3b53c38f	0.0032312607
93	0x3c715dbb	0.01473182
94	0xbcb01cf3	-0.021498179
95	0xbc33425a	-0.010941112
96	0x3c164d45	0.009173696
97	0xbc0fc181	-0.008774162
98	0xbd007a9f	-0.03136694
99	0x3bc3506c	0.005960515
100	0xbc8d6b80	-0.017263174
101	0xbbd9d943	-0.006648214
102	0x3b9b8b57	0.004746835
103	0xbbf9f998	-0.007628631
104	0xbb19fe03	-0.002349735
105	0xbb0c951f	-0.0021451188
106	0x3b881bce	0.004153705
107	0x3c64f165	0.013973569
108	0xbba3ae59	-0.004995149
109	0xbbfc55ab	-0.007700642
110	0xbb48df81	-0.0030650797
111	0xbba1e671	-0.004940801
112	0xbaa29c8c	-0.0012406274
113	0xbc7172a8	-0.014736809
114	0xbc386717	-0.011255047
115	0xba315234	-0.00067642634
116	0xbb7daa6a	-0.003870631
117	0xbba862bf	-0.0051387246
118	0xbbe98112	-0.007125982
119	0xbbabf345	-0.005247506
120	0xbc5484fb	-0.012971158
121	0xbbe7fd35	-0.007079745
122	0x3bee861d	0.007279171
123	0xbc21c803	-0.009874347
124	0x3ba10f47	0.0049151513
125	0xbc546e30	-0.012965724
126	0xbc6c0ee5	-0.014407848
127	0x3c1e02dc	0.009644236

exp_avg f4 [128, 126]
0	0xb8394ed9	-4.418087e-05
1	0xb6d1a21c	-6.2475574e-06
2	0xb8823cae	-6.2101855e-05
3	0x3901175c	0.000123111
4	0x38bf6442	9.126264e-05
5	0x3907e774	0.00012960826
6	0x378cb8ce	1.6775357e-05
7	0x36a13b24	4.805059e-06
8	0xb8147b7d	-3.5400957e-05
9	0x380c0300	3.3381395e-05
10	0x39040d29	0.00012593404
11	0x390dac81	0.0001351107
12	0xb684c05e	-3.956301e-06
13	0x3899545b	7.311321e-05
14	0xb8821a02	-6.2037274e-05
15	0x38a95a8a	8.075412e-05
16	0x37cc12c9	2.4327443e-05
17	0x38833889	6.257097e-05
18	0x3676bdfa	3.6767437e-06
19	0x38634529	5.4185428e-05
20	0xb7e96c7b	-2.782628e-05
21	0x3824701d	3.920506e-05
22	0x37a3a5b2	1.9508272e-05
23	0x38bcdfe0	9.0062385e-05
24	0x38044457	3.15349e-05
25	0x3826e6c7	3.9792412e-05
26	0xb8a66bd1	-7.935579e-05
27	0x3915afaf	0.00014275195
28	0xb875d1a0	-5.860778e-05
29	0x38b758d5	8.742666e-05
30	0x38ed223d	0.00011307418
31	0xb8d8cf96	-0.000103383485
32	0x3813f26c	3.5273304e-05
33	0x3960e34d	0.00021446981
34	0xb944d4c2	-0.00018771275
35	0x3874a9d9	5.8332316e-05
36	0x37eb3cd1	2.8042503e-05
37	0xb893f03c	-7.0542534e-05
38	0xb7bb26f5	-2.2310278e-05
39	0x38d19d67	9.995215e-05
40	0x388d415a	6.7355766e-05
41	0x38b3cf8d	8.5740445e-05
42	0xb78a734f	-1.6504577e-05
43	0xb77a77e7	-1.4929078e-05
44	0x37fe97d6	3.0349864e-05
45	0x3919ca4a	0.00014666576
46	0xb8d7a51e	-0.000102827544
47	0x38b05071	8.4073174e-05
48	0x380c44a7	3.344254e-05
49	0x38aaf9e8	8.15278e-05
50	0x37acd1bb	2.0601661e-05
51	0x3907cb88	0.00012950425
52	0xb9877da4	-0.00025842816
53	0xb6f086a3	-7.168231e-06
54	0x38ad2e39	8.2578925e-05
55	0x377445a2	1.4559746e-05
56	0xb820c97e	-3.8334627e-05
57	0x3735013a	1.0788726e-05
58	0xb930031d	-0.00016785828
59	0x38a20c2a	7.727028e-05
60	0x389ef981	7.580501e-05
61	0x3782baea	1.5584246e-05
62	0x38670dc0	5.5087497e-05
63	0x38eab98a	0.00011192549
64	0xb90e5f4b	-0.00013577675
65	0xb6d6497d	-6.386252e-06
66	0x388f63db	6.837371e-05
67	0xb8b1d36f	-8.4794e-05
68	0x38673dbc	5.5132186e-05
69	0x3835ad70	4.331529e-05
70	0x3301990c	3.017435e-08
71	0x38c78b85	9.515047e-05
72	0x37ba6249	2.2218695e-05
73	0x37fd3678	3.0185314e-05
74	0x38371ce2	4.36575e-05
75	0x38c96c2c	9.6045755e-05
76	0xb8038f91	-3.136654e-05
77	0x386cb0c7	5.643142e-05
78	0x38c44aa4	9.359911e-05
79	0xb8abde9b	-8.195379e-05
80	0xb7878b85	-1.6158223e-05
81	0x381e1d72	3.769756e-05
82	0x379502ff	1.776358e-05
83	0x38aec69b	8.33396e-05
84	0x383bd110	4.477898e-05
85	0x38516edb	4.9932725e-05
86	0x3868ff57	5.5550914e-05
87	0x38e4a2cf	0.00010902213
88	0xb90225c0	-0.00012411829
89	0x37cf29cc	2.4695786e-05
90	0x38c5e721	9.436743e-05
91	0xb8796138	-5.945677e-05
92	0x38b6cbb7	8.716381e-05
93	0x38b6d40e	8.7179345e-05
94	0xb80757e3	-3.226836e-05
95	0x38c98715	9.609588e-05
96	0xb817bf96	-3.6179634e-05
97	0x383031c9	4.2008036e-05
98	0x37bb84a5	2.2353905e-05
99	0x38dffecf	0.000106809304
100	0xb8c15ea8	-9.220588e-05
101	0x37ee3d85	2.8400458e-05
102	0xb6c15774	-5.762029e-06
103	0x384e5ba1	4.9199563e-05
104	0x38096d07	3.2764885e-05
105	0x3897aa25	7.231933e-05
106	0x383854bb	4.394793e-05
107	0x3864042c	5.436332e-05
108	0xb8147ad6	-3.540035e-05
109	0x384d4790	4.8942456e-05
110	0xb6f21330	-7.2143957e-06
111	0x3913c3de	0.00014091979
112	0xb7ede0e9	-2.8357334e-05
113	0x3880ea03	6.147104e-05
114	0x38c2ddd2	9.291958e-05
115	0xb727ee40	-1.0009448e-05
116	0x384e52dc	4.9191396e-05
117	0x392e702e	0.00016635723
118	0xb93173dc	-0.00016923196
119	0xb7bfad03	-2.284954e-05
120	0x38c2ddd2	9.291958e-05
121	0xb727f96b	-1.0012048e-05
122	0x38517649	4.9939645e-05
123	0x392e70ec	0.00016636
124	0xb93d495c	-0.00018051773
125	0xb7cea957	-2.4635969e-05
126	0xb6b1bccb	-5.2969895e-06
127	0xb7de42ee	-2.6495629e-05
128	0xb7631e23	-1.3537271e-05
129	0x37c0d5b4	2.2987697e-05
130	0x37aa0708	2.0268853e-05
131	0x37682a32	1.3838102e-05
132	0x37575a03	1.2835956e-05
133	0x36ac5757	5.136167e-06
134	0xb7a2ebd8	-1.9421728e-05
135	0xb7955ed6	-1.7806346e-05
136	0x37fdfcd4	3.0277683e-05
137	0x37da7a1a	2.6044483e-05
138	0xb788f300	-1.6325619e-05
139	0x37e46ed8	2.7231334e-05
140	0xb7c9b6ce	-2.4046192e-05
141	0x37237e02	9.744896e-06
142	0x36853cce	3.9707875e-06
143	0xb64f6e58	-3.0909632e-06
144	0xb4cda0b3	-3.830115e-07
145	0x375b2c3f	1.3063719e-05
146	0xb7562850	-1.276478e-05
147	0xb798c11e	-1.820974e-05
148	0x373d890d	1.12971875e-05
149	0x37e4046b	2.7181775e-05
150	0xb699e99c	-4.586951e-06
151	0x37aefdbd	2.0860572e-05
152	0xb7f05e65	-2.8654185e-05
153	0x38513e6d	4.988762e-05
154	0xb83a4735	-4.4412172e-05
155	0xb72c202e	-1.0259491e-05
156	0x38172959	3.6039713e-05
157	0xb86adf37	-5.5997833e-05
158	0x3753eb77	1.26314035e-05
159	0x382366bf	3.8957918e-05
160	0xb80bbd80	-3.3316668e-05
161	0x37889b20	1.6284699e-05
162	0x36f27eb8	7.226914e-06
163	0xb7c5377a	-2.3510063e-05
164	0xb72172a5	-9.623041e-06
165	0x384d4fe7	4.8950224e-05
166	0xb7a1bb85	-1.9280016e-05
167	0xb75395b4	-1.26114355e-05
168	0xb62548f6	-2.4629385e-06
169	0xb7d8c74c	-2.5842011e-05
170	0x3735dcc6	1.08398435e-05
171	0x3767fea2	1.3827959e-05
172	0x35a78bdf	1.2483177e-06
173	0x3811d2f0	3.4767145e-05
174	0x36aa9500	5.0837407e-06
175	0x37d3fcde	2.527091e-05
176	0x358adc7c	1.0345971e-06
177	0x3860a20c	5.355668e-05
178	0xb8dad6ee	-0.00010435084
179	0xb80d6b36	-3.3716868e-05
180	0x3781abf0	1.5458063e-05
181	0x369b9738	4.636964e-06
182	0x3420fe2f	1.4993633e-07
183	0xb856b56f	-5.119055e-05
184	0xb685c64d	-3.986794e-06
185	0x37f505cf	2.920898e-05
186	0x37c9c699	2.4053546e-05
187	0xb531edd2	-6.628371e-07
188	0x37863107	1.5996875e-05
189	0x382d6e9f	4.1349438e-05
190	0xb88bbe11	-6.663439e-05
191	0xb8039aaf	-3.1376894e-05
192	0x37839564	1.5685982e-05
193	0xb82f8ad9	-4.1852563e-05
194	0x379abea4	1.8447005e-05
195	0xb78d1581	-1.6818523e-05
196	0x37e4ed11	2.729011e-05
197	0x380aea7e	3.312015e-05
198	0x33d7c253	1.0047065e-07
199	0x379693a7	1.795015e-05
200	0xb3361850	-4.239729e-08
201	0x38013e93	3.0814273e-05
202	0xb81a3fa5	-3.6775735e-05
203	0xb776738b	-1.4689645e-05
204	0x379a7ad4	1.8415427e-05
205	0xb7f5d1b8	-2.9303934e-05
206	0xb7ca6ccc	-2.4130939e-05
207	0xb778d0ce	-1.4830568e-05
208	0x383dbccc	4.5236942e-05
209	0x379c5031	1.8633991e-05
210	0x37340466	1.072986e-05
211	0x37cbd3cb	2.429811e-05
212	0x373fac56	1.1424612e-05
213	0x37faf1ca	2.9914914e-05
214	0xb896f84e	-7.198808e-05
215	0xb79c8524	-1.8658648e-05
216	0x37976922	1.8049559e-05
217	0xb7f35306	-2.9006518e-05
218	0x380174f2	3.086491e-05
219	0x3797df35	1.8104542e-05
220	0xb747b12a	-1.19025735e-05
221	0x3744d6b9	1.1732504e-05
222	0xb720c8d9	-9.583507e-06
223	0x36f92db6	7.4260997e-06
224	0x36f4f181	7.2998814e-06
225	0x37cadcb6	2.4183053e-05
226	0xb8475208	-4.7521695e-05
227	0xb7557740	-1.2723554e-05
228	0x34c5fe8a	3.687931e-07
229	0x37ed0701	2.8255863e-05
230	0x3769a554	1.3926376e-05
231	0x3798afa6	1.8201605e-05
232	0xb806470f	-3.2014268e-05
233	0xb79a66d6	-1.8406117e-05
234	0xb71ac940	-9.2259725e-06
235	0x379639c0	1.7908285e-05
236	0xb586d054	-1.004441e-06
237	0x382f71b1	4.1829135e-05
238	0xb7f7cbaf	-2.9539542e-05
239	0xb5e9b99c	-1.7413872e-06
240	0x37f2a1b9	2.8923956e-05
241	0xb70cd673	-8.394581e-06
242	0x3754a82b	1.2675339e-05
243	0x387b1d6a	5.9870457e-05
244	0xb8b10955	-8.441756e-05
245	0xb8071190	-3.2202865e-05
246	0x37f2a1b9	2.8923956e-05
247	0xb70cdb47	-8.395705e-06
248	0x3756f6c9	1.2812853e-05
249	0x387b1e81	5.9871472e-05
250	0xb8bbaaff	-8.948705e-05
251	0xb80a99c0	-3.3044955e-05
252	0xb8784455	-5.9191447e-05
253	0xb7e7e5f5	-2.7644428e-05
254	0xb8cc7028	-9.748369e-05
255	0x39161d33	0.00014315992

exp_avg_sq f4 [128, 126]
0	0x32b62d5d	2.1208217e-08
1	0x3275f6e3	1.43170125e-08
2	0x329331c3	1.7135681e-08
3	0x3330740c	4.1083737e-08
4	0x34bb44cd	3.4881523e-07
5	0x34df2c05	4.1569015e-07
6	0x32ba2e12	2.16742e-08
7	0x327ef31c	1.48400225e-08
8	0x32c4e61f	2.292205e-08
9	0x335bb349	5.115297e-08
10	0x34c15ca5	3.601646e-07
11	0x34ded6a0	4.1506883e-07
12	0x32a0f7f8	1.8739215e-08
13	0x32869124	1.5665655e-08
14	0x32b28868	2.0783958e-08
15	0x331d4f2e	3.6626425e-08
16	0x34c764eb	3.7140066e-07
17	0x34e1da86	4.2068513e-07
18	0x32c4d01c	2.291204e-08
19	0x32929aa7	1.7066965e-08
20	0x32c5f3c6	2.3044674e-08
21	0x3359d258	5.0715556e-08
22	0x34b715fb	3.41024e-07
23	0x34d78c0b	4.0148765e-07
24	0x32bc6782	2.193315e-08
25	0x32b10399	2.0607148e-08
26	0x32959402	1.741319e-08
27	0x33184988	3.5457134e-08
28	0x34c0e652	3.5930367e-07
29	0x34e22f46	4.2130176e-07
30	0x32ab6ddf	1.9956984e-08
31	0x328b315c	1.6204176e-08
32	0x329e0910	1.8397742e-08
33	0x335e34c6	5.17364e-08
34	0x34bfb837	3.5710556e-07
35	0x34de9547	4.1459336e-07
36	0x32a71139	1.944919e-08
37	0x328d3662	1.643929e-08
38	0x32a13414	1.876655e-08
39	0x330aeaa5	3.2344037e-08
40	0x34cfe5de	3.8724005e-07
41	0x34e81632	4.3229517e-07
42	0x32c9fc66	2.3514257e-08
43	0x3289ef42	1.6057701e-08
44	0x328d838e	1.6474385e-08
45	0x33777c44	5.7622188e-08
46	0x34b8d5ef	3.4428328e-07
47	0x34dc2ac5	4.1009312e-07
48	0x32b367f1	2.088561e-08
49	0x32905f1f	1.6807062e-08
50	0x3286c75b	1.569031e-08
51	0x33130c5f	3.4237356e-08
52	0x34c3d182	3.6474017e-07
53	0x34e1f120	4.2084957e-07
54	0x32c9d9c0	2.3498501e-08
55	0x329fcabb	1.8602227e-08
56	0x32a6b35e	1.940651e-08
57	0x3358df00	5.0494236e-08
58	0x34bd4e9a	3.5261183e-07
59	0x34dc5640	4.1040948e-07
60	0x329cbbc5	1.8246178e-08
61	0x328f08a7	1.6651326e-08
62	0x32926833	1.7044021e-08
63	0x3307b55f	3.1597093e-08
64	0x34c21a80	3.6154597e-07
65	0x34e30857	4.2288113e-07
66	0x32ce45e5	2.401334e-08
67	0x3290ce85	1.685772e-08
68	0x32b4b95c	2.103905e-08
69	0x3350bfb9	4.8603145e-08
70	0x34bae4b0	3.4811592e-07
71	0x34dc826d	4.107309e-07
72	0x32da19f0	2.5390335e-08
73	0x329a68b4	1.7975573e-08
74	0x3290aa53	1.684126e-08
75	0x32fb37b7	2.9245582e-08
76	0x34bd0a67	3.5211562e-07
77	0x34dfcb37	4.1684845e-07
78	0x32c86533	2.3329084e-08
79	0x3286ad21	1.5678383e-08
80	0x329697c4	1.7531313e-08
81	0x3341a4d4	4.5086225e-08
82	0x34b68dfc	3.400345e-07
83	0x34dd71d8	4.124729e-07
84	0x32d49b78	2.4750747e-08
85	0x3289ba87	1.6033722e-08
86	0x329ab07f	1.800822e-08
87	0x32eda0fe	2.7663642e-08
88	0x34c66af8	3.6958204e-07
89	0x34e27d4f	4.2186954e-07
90	0x32b90281	2.1537973e-08
91	0x3283b154	1.5331047e-08
92	0x3276490a	1.4335692e-08
93	0x331afee1	3.608773e-08
94	0x34bdeb7b	3.5375328e-07
95	0x34e3a698	4.2403258e-07
96	0x32b99169	2.160296e-08
97	0x325e141c	1.2926673e-08
98	0x32775aff	1.4397982e-08
99	0x33014fae	3.010762e-08
100	0x34c93a59	3.748162e-07
101	0x34e67dc9	4.293236e-07
102	0x32c5ae2f	2.3013028e-08
103	0x3290435b	1.6794436e-08
104	0x325739d5	1.2527797e-08
105	0x32f69403	2.8705477e-08
106	0x34cb9666	3.7921126e-07
107	0x34e7784d	4.3114633e-07
108	0x32dde871	2.5833488e-08
109	0x327b84b3	1.4640295e-08
110	0x323cf1d5	1.09980265e-08
111	0x33062c44	3.1239566e-08
112	0x34c54dc6	3.6750697e-07
113	0x34e6916e	4.2946652e-07
114	0x3301dc08	3.023527e-08
115	0x325d4016	1.28784645e-08
116	0x325ff243	1.3035392e-08
117	0x330446d5	3.0798066e-08
118	0x34bd5d2e	3.527179e-07
119	0x34e0e2ae	4.1888183e-07
120	0x3301dc08	3.023527e-08
121	0x325d59c8	1.2884307e-08
122	0x325ddeb0	1.2914526e-08
123	0x33043e03	3.0790044e-08
124	0x34bdadbd	3.5330405e-07
125	0x34e0d69c	4.18794e-07
126	0x30b62ac1	1.3254394e-09
127	0x3114afa9	2.1636686e-09
128	0x30c87172	1.4584158e-09
129	0x3224821f	9.5756425e-09
130	0x32c37a56	2.275662e-08
131	0x3302dfed	3.0471643e-08
132	0x309d8bdb	1.1463003e-09
133	0x30c3a070	1.4233716e-09
134	0x30d1d692	1.5267736e-09
135	0x325eb08c	1.2962243e-08
136	0x32c32f87	2.27226e-08
137	0x32fc4fb7	2.9372911e-08
138	0x30bf41a1	1.3915732e-09
139	0x30e0570e	1.6322887e-09
140	0x30e471fd	1.6621581e-09
141	0x32025d83	7.588258e-09
142	0x32e5efde	2.6768188e-08
143	0x330a8327	3.224991e-08
144	0x31193245	2.2293005e-09
145	0x310a437a	2.012e-09
146	0x311c61f0	2.2756659e-09
147	0x32505a84	1.2127774e-08
148	0x329f847f	1.8570288e-08
149	0x32e357cf	2.6466209e-08
150	0x30508e53	7.5872214e-10
151	0x30bb6ca4	1.3636918e-09
152	0x30c2a3ea	1.4161945e-09
153	0x31ac7bfb	5.019954e-09
154	0x3301a60b	3.018617e-08
155	0x33154303	3.4752713e-08
156	0x30cfdde2	1.5124295e-09
157	0x30eecbac	1.7374666e-09
158	0x30f1aa05	1.758338e-09
159	0x32565a10	1.2476917e-08
160	0x32b355f6	2.0877433e-08
161	0x32e92e68	2.7145873e-08
162	0x30bac3ee	1.3588968e-09
163	0x30a3693e	1.1889723e-09
164	0x30a37779	1.1893767e-09
165	0x3198186e	4.4265596e-09
166	0x3306cf78	3.1387998e-08
167	0x3317e553	3.5365996e-08
168	0x31001d3b	1.8643067e-09
169	0x31205b1b	2.3334852e-09
170	0x3111bfe1	2.1209348e-09
171	0x325320e8	1.22892985e-08
172	0x32a330cf	1.8997893e-08
173	0x32e63c5a	2.6802969e-08
174	0x30b9daa7	1.3522666e-09
175	0x30768dd8	8.969585e-10
176	0x30bbc696	1.3662482e-09
177	0x316219ca	3.2901988e-09
178	0x33076a60	3.1528884e-08
179	0x331634f4	3.4972757e-08
180	0x3099c2a3	1.1187534e-09
181	0x30cf09ee	1.5064054e-09
182	0x3139c855	2.7034919e-09
183	0x323816ac	1.0715365e-08
184	0x32bf7b89	2.2291504e-08
185	0x32f21591	2.8182315e-08
186	0x30e6b38d	1.6785734e-09
187	0x30467e02	7.221105e-10
188	0x30f21930	1.7614976e-09
189	0x314f5dc2	3.017576e-09
190	0x33028cfc	3.0396208e-08
191	0x3316535e	3.500042e-08
192	0x30fff8e9	1.8624436e-09
193	0x30f7e487	1.8036567e-09
194	0x316b6eab	3.4259908e-09
195	0x3219e265	8.957248e-09
196	0x32bc6439	2.1931656e-08
197	0x32f2bd20	2.8258512e-08
198	0x310bfea4	2.0371909e-09
199	0x309bf7a8	1.1348122e-09
200	0x30cf2ace	1.5073398e-09
201	0x3124ed80	2.4000144e-09
202	0x33054572	3.1029636e-08
203	0x3317589a	3.523801e-08
204	0x30adfb9c	1.2658918e-09
205	0x3108d141	1.9909552e-09
206	0x315ae7aa	3.185486e-09
207	0x3206e969	7.852898e-09
208	0x32c34d65	2.2736183e-08
209	0x33016739	3.0129033e-08
210	0x311a48b3	2.2451274e-09
211	0x305497ec	7.7341045e-10
212	0x30b5d0a5	1.3228784e-09
213	0x315ad7e4	3.1845895e-09
214	0x3306d9ed	3.139751e-08
215	0x3316df96	3.5127947e-08
216	0x30f31df2	1.7689088e-09
217	0x30feac1f	1.8529852e-09
218	0x3131a330	2.5849651e-09
219	0x31b218de	5.183309e-09
220	0x32d622d8	2.4928724e-08
221	0x3307dfbf	3.1635633e-08
222	0x3119b745	2.2368607e-09
223	0x30849737	9.647242e-10
224	0x30a0f8bc	1.1712227e-09
225	0x3153a540	3.0798475e-09
226	0x33030253	3.0502928e-08
227	0x3314d724	3.4654605e-08
228	0x30c98d45	1.4664826e-09
229	0x30e0eabd	1.6364862e-09
230	0x31001d8c	1.8643247e-09
231	0x3190e33c	4.216785e-09
232	0x32fc80f6	2.9395306e-08
233	0x33111ffb	3.378953e-08
234	0x3109c5c2	2.0048536e-09
235	0x30a57b6d	1.204041e-09
236	0x3094403f	1.0786677e-09
237	0x31810121	3.7545225e-09
238	0x32fa22dd	2.9119684e-08
239	0x3314ca4d	3.4642927e-08
240	0x31198b0c	2.234347e-09
241	0x30aa1db7	1.2377573e-09
242	0x30c2970b	1.4158287e-09
243	0x319d10bf	4.571205e-09
244	0x32e8c878	2.7099517e-08
245	0x330ea840	3.3214974e-08
246	0x31198b0c	2.234347e-09
247	0x30aa4719	1.2389335e-09
248	0x30c04998	1.3990755e-09
249	0x319d0eeb	4.5709974e-09
250	0x32e8f45b	2.7119475e-08
251	0x330e8efb	3.319199e-08
252	0x33567230	4.992961e-08
253	0x3329455f	3.941147e-08
254	0x33396ebb	4.3174378e-08
255	0x33b0aa19	8.226579e-08

exp_avg f4 [128]
0	0x38e5aa2b	0.00010951267
1	0x34baae1c	3.477188e-07
2	0x39204dcf	0.00015287775
3	0x3784dac9	1.5837506e-05
4	0xb719e28b	-9.172257e-06
5	0x37fa9df3	2.9875873e-05
6	0xb73016b0	-1.04957e-05
7	0xb82589d4	-3.9467428e-05
8	0x381578fa	3.5637036e-05
9	0xb93d49a4	-0.00018051878
10	0x38aef83b	8.343203e-05
11	0xb9020575	-0.00012399799
12	0x38daf3c5	0.00010440456
13	0xb838d302	-4.4065535e-05
14	0x392050a9	0.00015288837
15	0xb93cd49b	-0.00018008279
16	0xb9d34f05	-0.0004030393
17	0xb7e8ee46	-2.776751e-05
18	0xb94903b0	-0.00019170227
19	0xba0e4298	-0.00054267934
20	0xb9d3d4b9	-0.00040403547
21	0x36bdbf0b	5.6548793e-06
22	0x390ec227	0.00013614503
23	0x386a85e3	5.591464e-05
24	0xb95304f1	-0.00020124369
25	0x381aa79c	3.687256e-05
26	0x39491a0f	0.00019178561
27	0xb995dc64	-0.00028583698
28	0x38a60e5a	7.91817e-05
29	0x37e63bec	2.744604e-05
30	0xb9b915ae	-0.00035302102
31	0xb89e3c16	-7.545219e-05
32	0x388e0338	6.771687e-05
33	0xb9cd6a91	-0.00039180045
34	0x38bf9c7d	9.136738e-05
35	0xb9514d7d	-0.0001996066
36	0x38e73062	0.0001102395
37	0x39e09a7e	0.00042839715
38	0x39459823	0.0001884406
39	0x37f2c9d9	2.894264e-05
40	0x3904d7a4	0.00012668833
41	0x391e5c8e	0.00015102534
42	0xba1a8073	-0.0005893774
43	0xb88dd107	-6.762338e-05
44	0x38bdce5c	9.05066e-05
45	0xb815a317	-3.5676258e-05
46	0xb9e90738	-0.00044446602
47	0xb911dafa	-0.00013909853
48	0xb8ea76d9	-0.000111801266
49	0xb99d46a1	-0.00029997996
50	0x380345ae	3.1297728e-05
51	0xb99c7372	-0.00029840652
52	0xb9c6db0b	-0.00037928703
53	0x385cf06e	5.2676005e-05
54	0xb8d2de0e	-0.00010054941
55	0x38b5d0a9	8.6696185e-05
56	0x39c2df29	0.0003716883
57	0xb8445486	-4.680876e-05
58	0x391ab73c	0.00014754845
59	0xb812c844	-3.4995624e-05
60	0xb932aca0	-0.0001703971
61	0x36534b73	3.1485367e-06
62	0x3927c34d	0.00015999116
63	0xb823003a	-3.886244e-05
64	0xb942cf84	-0.00018578587
65	0xb9e954bc	-0.00044504355
66	0x3792f446	1.7518305e-05
67	0xb9e3f31e	-0.0004347795
68	0xb8cc8b0a	-9.753376e-05
69	0x398514ab	0.00025383136
70	0xb8c18d1e	-9.229242e-05
71	0x3977f92c	0.0002364858
72	0xb9bff05c	-0.0003660944
73	0x3770861c	1.43363395e-05
74	0x397c1f74	0.0002404431
75	0x385c76df	5.2562795e-05
76	0x37c7df60	2.3826666e-05
77	0xb859fde6	-5.1973293e-05
78	0xb910bdc4	-0.00013803603
79	0xb85ed903	-5.3131032e-05
80	0xb95c695f	-0.00021020089
81	0x384a6d16	4.8262147e-05
82	0xb95b9983	-0.00020942655
83	0xb7be9e0e	-2.2723365e-05
84	0xb8062fb9	-3.1992535e-05
85	0x398fa24f	0.00027396015
86	0xb967cda9	-0.00022106491
87	0xb6dc866d	-6.57216e-06
88	0x37d1ce3d	2.5010779e-05
89	0xb79dd0fc	-1.8813174e-05
90	0xb8dc1061	-0.00010493468
91	0xb897fb67	-7.2470684e-05
92	0x3871a9ae	5.7616904e-05
93	0xb9db5835	-0.00041836654
94	0x39184e0d	0.00014524926
95	0xb76a7aa4	-1.3976041e-05
96	0x38c73028	9.498029e-05
97	0xb864bfcf	-5.453807e-05
98	0xb992bf8b	-0.0002799
99	0x391674af	0.00014348583
100	0xb96e952a	-0.00022753017
101	0xb833c31f	-4.2858646e-05
102	0xb953b3d5	-0.00020189521
103	0x391ffde3	0.00015258002
104	0xb9a57b8f	-0.0003156331
105	0xb83b3c54	-4.464046e-05
106	0xb92b8b6b	-0.00016359768
107	0xb8dacea8	-0.00010433543
108	0xb8f6cd53	-0.00011768439
109	0xb933a76f	-0.00017133144
110	0xb92dfc86	-0.00016592638
111	0xb99fd758	-0.00030487287
112	0xb91e174f	-0.00015076737
113	0xb9ad9621	-0.00033108986
114	0x3882b573	6.2326806e-05
115	0xb76e44a2	-1.4201885e-05
116	0xb82fd779	-4.1923926e-05
117	0x397c7df9	0.00024079521
118	0xb8ed2999	-0.00011308789
119	0xb8abcf49	-8.192525e-05
120	0x388e107a	6.774157e-05
121	0x39aa5082	0.0003248491
122	0xb4aa4b42	-3.1719725e-07
123	0x393e9cab	0.00018178175
124	0xb83c32c2	-4.4869965e-05
125	0xb83fa116	-4.568797e-05
126	0x39081448	0.00012977526
127	0x3886afb2	6.422344e-05
