results/Creature/My Behavior.onnx (onnx, 72102 bytes, 4 tensors)

network_body._body_endoder.seq_layers.0.weight f4 [128, 1]
0	0xbf40bef9	-0.752914
1	0xbf8de444	-1.1085286
2	0x3fc82fa8	1.5639544
3	0x3f38ff53	0.72264594
4	0x3fdf4468	1.7442751
5	0xbf81250e	-1.0089433
6	0xbe3fcee3	-0.18731265
7	0x3e5ee2b1	0.21766163
8	0xbf976aa3	-1.1829418
9	0x3f238287	0.63871044
10	0x3fd152bb	1.6353372
11	0xbfc43e7a	-1.5331566
12	0xbf87a931	-1.0598508
13	0x3d4c22b3	0.04983778
14	0xbf2164fb	-0.6304471
15	0x3ff9f679	1.9528342
16	0xbfcb46e8	-1.5881014
17	0xbf0e1c99	-0.55512387
18	0x3f3efe69	0.7460695
19	0x3f12b593	0.5730831
20	0xbe195dd1	-0.14977194
21	0x3f3debb2	0.7418777
22	0x404587e1	3.0864184
23	0xbfb949f0	-1.4475689
24	0xbeb8acf8	-0.36069465
25	0x3f87306d	1.0561653
26	0xbd99d4da	-0.07511301
27	0xbe44b04d	-0.19207878
28	0xbe5930ae	-0.21209976
29	0x3e00ab72	0.12565401
30	0x3fd3dd6e	1.655195
31	0xbf813f50	-1.0097446
32	0xbe4736f8	-0.19454563
33	0xbea00846	-0.31256312
34	0x3eeaf64f	0.45891044
35	0xbf818e03	-1.0121464
36	0xbeb71eff	-0.35765836
37	0xbeacf59a	-0.3378113
38	0xbf441928	-0.76600885
39	0x3f28ceac	0.65940356
40	0x3f727fab	0.94726056
41	0xbdef9b3f	-0.11699533
42	0x3f8c26c8	1.0949335
43	0xbeaaeaaa	-0.3338216
44	0x3faf1e9e	1.3681219
45	0x3e9507bf	0.29107472
46	0xbe9fb2b5	-0.3119103
47	0xbfd4dc54	-1.6629739
48	0xbf96fc3d	-1.1795727
49	0x3f82f1d1	1.0230047
50	0x3d6ea443	0.05826212
51	0xbe88db91	-0.26730016
52	0xbd82e0e9	-0.063905545
53	0x3f6b04f7	0.9180445
54	0x3fa7642f	1.3077449
55	0x3c15d272	0.009144412
56	0x3ea21318	0.31655192
57	0xbfab62d3	-1.3389534
58	0x3fdae5ea	1.7101414
59	0x3f3b9fa9	0.732905
60	0x3fb53a82	1.415848
61	0x3f8275ef	1.019224
62	0xbe3edcfe	-0.1863899
63	0x3deecf8e	0.11660682
64	0x3dd0f2e3	0.10202577
65	0xbf026d73	-0.50948256
66	0x3e674b5b	0.2258734
67	0xc0000309	-2.0001853
68	0x3fb72c77	1.4310445
69	0xbf1b201f	-0.6059589
70	0x3f7ae4e1	0.9800549
71	0x3f0d9895	0.55310947
72	0x3d294ca4	0.041332856
73	0x3f98fc37	1.195197
74	0x3f540ed9	0.82835156
75	0xbf6a9c85	-0.9164508
76	0x3ecd2b14	0.40071929
77	0xbfb9ccc3	-1.4515613
78	0xbf155e7e	-0.5834731
79	0xbfa13baf	-1.2596339
80	0x3ee86549	0.45389774
81	0xbe62d373	-0.22150974
82	0x3fbc700a	1.4721692
83	0x3d03683e	0.032081835
84	0xbff3c8cd	-1.9045655
85	0x3f2ebd85	0.68257934
86	0xbe360dfc	-0.17778772
87	0xbef9fe1a	-0.48826677
88	0x3c509aba	0.012732202
89	0xbf4b4d6e	-0.79415023
90	0xbf43ab37	-0.7643313
91	0x4007216f	2.1114156
92	0x3f00f755	0.503774
93	0x3f74d300	0.9563446
94	0x3fc6c4dc	1.5528827
95	0xbf3825cd	-0.7193268
96	0x3ffbdd5e	1.9676931
97	0xbdb89113	-0.09012046
98	0xbebfa560	-0.3743086
99	0xbf77e6fb	-0.96836823
100	0x3eba25b3	0.36356887
101	0x4009942e	2.1496692
102	0xbcca16e1	-0.024669113
103	0x3f298015	0.6621106
104	0x3f110797	0.56652206
105	0xbf3d249f	-0.73884004
106	0x3f7d40cb	0.9892699
107	0xbf24b332	-0.6433593
108	0xbe0b3153	-0.13593034
109	0xbf6f6dce	-0.93526924
110	0x3edb15e0	0.42790127
111	0xbfab22f3	-1.3370041
112	0x3f9c9c8b	1.2235273
113	0x3eab2241	0.3342457
114	0x3fa1ec9f	1.2650336
115	0x3f17109b	0.5900971
116	0xbf65eaaa	-0.89811194
117	0x3ef36cf9	0.47544077
118	0xbf75b383	-0.9597704
119	0xbf3d63b9	-0.7398029
120	0xbf8c3c9f	-1.0956
121	0x3f15cb1c	0.58513045
122	0xbcd331b4	-0.025780536
123	0x3faa3f52	1.3300574
124	0xbda1a5db	-0.078929625
125	0x3f38f0f0	0.7224264
126	0x3ff35646	1.9010704
127	0x3f089f65	0.53368217

network_body._body_endoder.seq_layers.0.bias f4 [128]
0	0x00000000	0.0
1	0x00000000	0.0
2	0x00000000	0.0
3	0x00000000	0.0
4	0x00000000	0.0
5	0x00000000	0.0
6	0x00000000	0.0
7	0x00000000	0.0
8	0x00000000	0.0
9	0x00000000	0.0
10	0x00000000	0.0
11	0x00000000	0.0
12	0x00000000	0.0
13	0x00000000	0.0
14	0x00000000	0.0
15	0x00000000	0.0
16	0x00000000	0.0
17	0x00000000	0.0
18	0x00000000	0.0
19	0x00000000	0.0
20	0x00000000	0.0
21	0x00000000	0.0
22	0x00000000	0.0
23	0x00000000	0.0
24	0x00000000	0.0
25	0x00000000	0.0
26	0x00000000	0.0
27	0x00000000	0.0
28	0x00000000	0.0
29	0x00000000	0.0
30	0x00000000	0.0
31	0x00000000	0.0
32	0x00000000	0.0
33	0x00000000	0.0
34	0x00000000	0.0
35	0x00000000	0.0
36	0x00000000	0.0
37	0x00000000	0.0
38	0x00000000	0.0
39	0x00000000	0.0
40	0x00000000	0.0
41	0x00000000	0.0
42	0x00000000	0.0
43	0x00000000	0.0
44	0x00000000	0.0
45	0x00000000	0.0
46	0x00000000	0.0
47	0x00000000	0.0
48	0x00000000	0.0
49	0x00000000	0.0
50	0x00000000	0.0
51	0x00000000	0.0
52	0x00000000	0.0
53	0x00000000	0.0
54	0x00000000	0.0
55	0x00000000	0.0
56	0x00000000	0.0
57	0x00000000	0.0
58	0x00000000	0.0
59	0x00000000	0.0
60	0x00000000	0.0
61	0x00000000	0.0
62	0x00000000	0.0
63	0x00000000	0.0
64	0x00000000	0.0
65	0x00000000	0.0
66	0x00000000	0.0
67	0x00000000	0.0
68	0x00000000	0.0
69	0x00000000	0.0
70	0x00000000	0.0
71	0x00000000	0.0
72	0x00000000	0.0
73	0x00000000	0.0
74	0x00000000	0.0
75	0x00000000	0.0
76	0x00000000	0.0
77	0x00000000	0.0
78	0x00000000	0.0
79	0x00000000	0.0
80	0x00000000	0.0
81	0x00000000	0.0
82	0x00000000	0.0
83	0x00000000	0.0
84	0x00000000	0.0
85	0x00000000	0.0
86	0x00000000	0.0
87	0x00000000	0.0
88	0x00000000	0.0
89	0x00000000	0.0
90	0x00000000	0.0
91	0x00000000	0.0
92	0x00000000	0.0
93	0x00000000	0.0
94	0x00000000	0.0
95	0x00000000	0.0
96	0x00000000	0.0
97	0x00000000	0.0
98	0x00000000	0.0
99	0x00000000	0.0
100	0x00000000	0.0
101	0x00000000	0.0
102	0x00000000	0.0
103	0x00000000	0.0
104	0x00000000	0.0
105	0x00000000	0.0
106	0x00000000	0.0
107	0x00000000	0.0
108	0x00000000	0.0
109	0x00000000	0.0
110	0x00000000	0.0
111	0x00000000	0.0
112	0x00000000	0.0
113	0x00000000	0.0
114	0x00000000	0.0
115	0x00000000	0.0
116	0x00000000	0.0
117	0x00000000	0.0
118	0x00000000	0.0
119	0x00000000	0.0
120	0x00000000	0.0
121	0x00000000	0.0
122	0x00000000	0.0
123	0x00000000	0.0
124	0x00000000	0.0
125	0x00000000	0.0
126	0x00000000	0.0
127	0x00000000	0.0

network_body._body_endoder.seq_layers.2.weight f4 [128, 128]
0	0x3e32159b	0.17391054
1	0xbdb81127	-0.089876465
2	0xbe191c80	-0.14952278
3	0xbe01865b	-0.12648909
4	0x3dc975f0	0.09836948
5	0xbe25126b	-0.16120307
6	0xbdccebc8	-0.10005909
7	0x3d0a3323	0.033740174
8	0x3dacd1e8	0.08438474
9	0xbd8c1fab	-0.06841978
10	0xbcaad6e3	-0.02085442
11	0xbd885fe2	-0.06658913
12	0xbcb17c31	-0.021665664
13	0xbcd1e1eb	-0.025620421
14	0xbdadd4c0	-0.084878445
15	0x3d25fb12	0.040522642
16	0x3dcc36d3	0.099713944
17	0x3c020eb1	0.007938073
18	0xbe2e6b10	-0.17033029
19	0xbd235246	-0.039873384
20	0xbcb90ceb	-0.022589168
21	0xbbcba434	-0.006214643
22	0x3c3498a7	0.011022723
23	0xbd6c2ef1	-0.057661954
24	0x3bd3e39d	0.0064663426
25	0x3ce2b778	0.027675375
26	0x3d5f5a29	0.054529343
27	0xbc261e91	-0.010139124
28	0xb9802613	-0.0002444243
29	0x3d749ae7	0.05971804
30	0x3d704d5c	0.058667526
31	0x3c3f0874	0.01165973
32	0xbdb69e1e	-0.08916877
33	0xbd32c862	-0.04364813
34	0xbdbea4bf	-0.093087666
35	0xbd346fae	-0.04405182
36	0x3db6009d	0.08886836
37	0x3decc0eb	0.11560234
38	0xbc89fa0c	-0.016842864
39	0xbd0aaf38	-0.033858508
40	0xbd8b9b6b	-0.06816753
41	0x3c3ada2c	0.011404555
42	0x3d149f7e	0.036284916
43	0x3c2b1647	0.010442323
44	0x3d0a8ff3	0.033828687
45	0xbdcbff29	-0.09960777
46	0xbc8b60e0	-0.017013967
47	0x3e00f11a	0.12591973
48	0x3e0debb5	0.13859446
49	0x3b9aff63	0.0047301515
50	0x3d613d3d	0.054990042
51	0xbde92d1a	-0.113855556
52	0xbc54da55	-0.012991508
53	0x3d0a53f6	0.033771478
54	0xbc90e5f7	-0.01768778
55	0x3c07b7a6	0.008283531
56	0x3cb7b761	0.022426309
57	0xbd2d6d9b	-0.042340856
58	0x3d88a6d1	0.06672443
59	0x3d079562	0.033101447
60	0x3b4e880b	0.0031514193
61	0x3d0651e1	0.03279293
62	0xbd98a082	-0.074524894
63	0xbc774800	-0.01509285
64	0x3e22be34	0.15892869
65	0xbe948d96	-0.29014271
66	0xbdc0d5f1	-0.09415806
67	0x3dc9c252	0.09851517
68	0xbb7a7f1d	-0.0038222738
69	0xbdbbaf37	-0.09164279
70	0x3c68745f	0.014187901
71	0x39bbfd4d	0.00035856143
72	0x3c0c1087	0.008548862
73	0x3c5f2b74	0.0136212
74	0xbd6d0efb	-0.057875615
75	0x3d2a8a46	0.041635774
76	0x3c884881	0.016636135
77	0x39812d97	0.00024638764
78	0xbe06314d	-0.13104744
79	0x3d20d4a9	0.03926531
80	0xbdaacca3	-0.083398126
81	0x3d8ecdbe	0.06972836
82	0x3d572c63	0.052532565
83	0xbe6629e2	-0.22476915
84	0xbdfcaf01	-0.12338067
85	0xbd4b097b	-0.04956959
86	0xbd855121	-0.06509615
87	0x3dc3874e	0.09547292
88	0xbd92db7f	-0.07170772
89	0xbcfba91a	-0.030720282
90	0xbcc440a7	-0.02395661
91	0x3dd3b053	0.103363656
92	0xbcb57bc8	-0.02215375
93	0xbd9ff037	-0.07809489
94	0x3da5183b	0.08061262
95	0x3c8bb13a	0.017052282
96	0x3c064a52	0.00819643
97	0xbdbaca9c	-0.09120676
98	0xbd5d7779	-0.054069016
99	0xbc2a2222	-0.010384114
100	0xbd66bce6	-0.05633249
101	0xbe03e29e	-0.12879416
102	0x3b8743ba	0.0041279467
103	0x3d24c1ba	0.040223815
104	0xbd836bff	-0.06417083
105	0xbd8f96a9	-0.07011158
106	0x3dde95e2	0.10868432
107	0x3d274ba8	0.040843636
108	0xbc15c53e	-0.0091412645
109	0xbe1a3560	-0.15059423
110	0xbe0c9ac6	-0.13730916
111	0x3db35d57	0.087580375
112	0xbc38904a	-0.01126487
113	0x3daa9e18	0.08330935
114	0xbe2e3aad	-0.1701457
115	0xbd21847e	-0.039432995
116	0x3e111635	0.14168628
117	0x3bd8eb36	0.006619836
118	0xbdde13e0	-0.108436346
119	0xbe48b45e	-0.19600055
120	0xbd3eb5cb	-0.04656009
121	0x3c5d7cd2	0.013518529
122	0x3e2a7dad	0.16649504
123	0xbde1000a	-0.109863356
124	0x3d8b87ad	0.068129875
125	0x3dd4b43a	0.10385938
126	0x3cb1174a	0.02161755
127	0x3d89f8a3	0.06736877
128	0xbc907b75	-0.017636994
129	0x3c097cbf	0.008391558
130	0xbdd1bb75	-0.10240833
131	0xbe39bbfb	-0.18138115
132	0x3d2b03d0	0.041751683
133	0xbd21c41a	-0.039493658
134	0xbd75be03	-0.059995662
135	0xbdb543fe	-0.08850859
136	0x3c0f8849	0.00876052
137	0xbdb69387	-0.08914857
138	0x3d089388	0.03334382
139	0xbbaaeacb	-0.005215978
140	0xbcb0f7bd	-0.021602506
141	0xbd8381a6	-0.06421213
142	0xbe1ed0e5	-0.15509374
143	0xbcb54680	-0.022128344
144	0xbc03b3c6	-0.008038467
145	0x3e5c3b84	0.21507078
146	0x3d77d118	0.06050214
147	0x3d81d673	0.06339731
148	0x3d190d12	0.03736598
149	0x3c0542a5	0.008133565
150	0x3d1fba53	0.038996052
151	0xbd0e410f	-0.034730013
152	0x3c24cef8	0.010059111
153	0xbe0b9eb3	-0.13634758
154	0xbcb00256	-0.021485489
155	0x3d30a097	0.0431219
156	0xbd9b984c	-0.07597408
157	0x3d51cfbe	0.05122351
158	0x3d463ad9	0.048395965
159	0xbdf9bea1	-0.12194563
160	0xbe124fe2	-0.14288285
161	0xbdaa1ac6	-0.08305888
162	0xbe161f8f	-0.14660476
163	0xbbd62f73	-0.006536418
164	0x3da5213b	0.08062979
165	0x3c3a4cbc	0.011370834
166	0xbd5bfee8	-0.053709894
167	0x3d1d4a30	0.03840083
168	0x3c255694	0.010091443
169	0x3c28d165	0.01030383
170	0xbd67a796	-0.056556307
171	0x3cd42131	0.025894733
172	0xbe1faf34	-0.15594178
173	0x3c99473e	0.018710729
174	0xbd537ab2	-0.051630683
175	0xbc77c700	-0.015123129
176	0xbd9fa407	-0.077949576
177	0xbd08b615	-0.033376772
178	0x3d9a60cf	0.07537996
179	0x3e1fe1cd	0.1561348
180	0xbdc79ff7	-0.09747308
181	0x3e1bc09e	0.15210196
182	0x3d008139	0.031373236
183	0x3df6c1c2	0.12048675
184	0xbc7971fc	-0.01522493
185	0xbdbde7d5	-0.09272734
186	0xbe06d80e	-0.13168356
187	0x3d8beb5b	0.06832
188	0xbd9e034d	-0.07715473
189	0x3e0de4b2	0.13856772
190	0x3c26fd30	0.010192201
191	0x3bd267a2	0.0064210454
192	0x3e2d5d24	0.16930062
193	0xbc94c636	-0.01816092
194	0x3e0535df	0.13008831
195	0x3b16a22f	0.0022984853
196	0x3d5b6457	0.05356249
197	0x3dd1c8b4	0.10243359
198	0xbae3fabf	-0.0017393454
199	0xbe380ed4	-0.17974406
200	0xbe2030d5	-0.15643628
201	0x3ce9430c	0.028474353
202	0x3c17545a	0.00923642
203	0xbc89dc1f	-0.016828595
204	0x3cf4b640	0.02987206
205	0xbd812054	-0.06304994
206	0x3d502bf1	0.050823156
207	0x3da06b50	0.07832968
208	0x3ce7209d	0.028213793
209	0xbe4cd715	-0.20003922
210	0x3c9d981f	0.019237576
211	0x3d34cf04	0.044142738
212	0xbd9a545d	-0.07535622
213	0xbc9cb683	-0.019129997
214	0x3e27ee65	0.16399534
215	0x3d3cb889	0.046074424
216	0x3e35c7d4	0.1775201
217	0xbdb25caa	-0.087090805
218	0x3d694e96	0.05695971
219	0x3df7eff0	0.12106311
220	0x3e30c1ed	0.17261477
221	0x3d0f6997	0.035012808
222	0xbe184906	-0.14871606
223	0xbda580ea	-0.08081229
224	0xbd1b46a4	-0.037909165
225	0xbd51c33f	-0.05121159
226	0xbd049778	-0.032371014
227	0xbd75b152	-0.05998356
228	0xbdca835a	-0.098883346
229	0xbd77f65b	-0.060537677
230	0xbd415d79	-0.047208283
231	0x3c56238c	0.0130699985
232	0x3bc3e282	0.0059779296
233	0xbd9cced4	-0.07656637
234	0xbd456de0	-0.048200488
235	0xbdd488c7	-0.10377651
236	0x3d37c395	0.044864256
237	0x3cb146c8	0.021640196
238	0x3dbf1c74	0.09331599
239	0x3d952ee9	0.07284338
240	0x3e2235ce	0.15840837
241	0x39a3838b	0.0003118779
242	0x3db6b1d2	0.08920635
243	0xb8d1a84e	-9.997246e-05
244	0xbcdcc475	-0.026949147
245	0xbe3132e0	-0.17304564
246	0x3dae719b	0.08517762
247	0xb9cb324e	-0.00038756657
248	0xbd1cf48a	-0.038319148
249	0xbde2f4d2	-0.11081852
250	0xbd9c2af8	-0.07625383
251	0xbcea6072	-0.028610442
252	0x3d7d5e53	0.061857533
253	0x3e21949c	0.15779346
254	0x3be61648	0.007021699
255	0x3cfdb95c	0.030972175

action_model._discrete_distribution.branches.0.weight f4 [1, 128]
0	0xbb5ac273	-0.003338006
1	0xbb3bb72f	-0.0028643121
2	0xbc6dd660	-0.014516443
3	0x3c472469	0.012154677
4	0x3bbab7df	0.0056981887
5	0xbc21b95f	-0.009870856
6	0xbbb0bbbb	-0.005393473
7	0xbbee3307	-0.0072692665
8	0x3bfcdf23	0.0077170297
9	0x3c700a75	0.014650931
10	0x3b3df125	0.0028982845
11	0xbc54aa02	-0.012979986
12	0xbc2ba386	-0.010475999
13	0x3b824d23	0.0039764806
14	0x3c6b259a	0.014352227
15	0xbc3594d2	-0.011082845
16	0x3be81928	0.007083077
17	0x3bf7f92d	0.007567546
18	0xba83183b	-0.0010001728
19	0xbb96042b	-0.0045781336
20	0xbbdc2ab5	-0.0067189583
21	0xbb7ab465	-0.0038254496
22	0xbc2c799f	-0.010527044
23	0xbb6b2715	-0.003588145
24	0xbbce9085	-0.006303849
25	0x3c590ae5	0.013247226
26	0x381b9886	3.709693e-05
27	0xba5ad145	-0.00083472236
28	0x3b359276	0.0027705706
29	0xba033c93	-0.00050062797
30	0x3c6f409d	0.014602807
31	0x3c25114f	0.0100749275
32	0xbc1b3d1e	-0.009475021
33	0xbb268e0a	-0.0025414252
34	0xb8043cb3	-3.1527783e-05
35	0xbad533aa	-0.0016266007
36	0x3c341a19	0.01099255
37	0xbb9ee0a3	-0.004848556
38	0xbb975085	-0.004617753
39	0xbb97a6b5	-0.0046280273
40	0xbc014983	-0.007891062
41	0xbcd7a0bf	-0.026321767
42	0x3c01b6a0	0.007917076
43	0xbb6956e5	-0.0035604772
44	0xbbeb2d8f	-0.007177062
45	0xbc80db39	-0.015729534
46	0x3b5304b5	0.003219885
47	0x3a8c5bd5	0.001070852
48	0xbc599b5f	-0.013281672
49	0xbc0b62e9	-0.008507469
50	0x3c2f9ee6	0.010719037
51	0xbbcc514f	-0.0062352787
52	0x3ca2f624	0.01989276
53	0xbbfe8a5f	-0.00776796
54	0x3c56ad0b	0.01310278
55	0xb9e81b2b	-0.0004427073
56	0x3c26186d	0.0101376595
57	0x3caa2e78	0.020774111
58	0x3b76b7a2	0.0037646075
59	0xbcc33442	-0.02382863
60	0xbc474d0a	-0.012164364
61	0x3c70077f	0.014650225
62	0xbc8decb8	-0.01732479
63	0xb8a5438a	-7.880393e-05
64	0xba9b16a0	-0.0011832304
65	0x3b4727b5	0.0030388657
66	0x3b452214	0.0030080127
67	0x3b022c3d	0.0019862794
68	0xbb74dbc8	-0.0037362445
69	0xbb3a1e01	-0.0028399231
70	0xbc048bfb	-0.008090015
71	0x3c81db23	0.015851563
72	0x3a92a627	0.0011188433
73	0x3bcc1972	0.0062286193
74	0xbc34a7fa	-0.011026377
75	0xb9a1f718	-0.00030892412
76	0xbb19de26	-0.0023478358
77	0x3b3c5647	0.0028737949
78	0xbb7db662	-0.0038713445
79	0x3c460c10	0.012087837
80	0x3b1612b2	0.0022899327
81	0x3c7d933d	0.015476999
82	0x37fdccf0	3.0255382e-05
83	0x3c24afbd	0.010051665
84	0x3bde98d0	0.006793119
85	0x3aa1a63f	0.001233287
86	0x3ae9d018	0.0017838506
87	0xbb44f04c	-0.0030050455
88	0xbb868431	-0.004105114
89	0xbc0e3772	-0.008680211
90	0xbcb3bad7	-0.021939678
91	0xbc54df1a	-0.012992645
92	0xbc79f03b	-0.015255029
93	0xbb788d65	-0.0037926075
94	0xbbf7be87	-0.0075605544
95	0x3bdcdee8	0.0067404397
96	0xbb901a74	-0.0043976847
97	0x3bc4f8c8	0.0060111023
98	0xbbdfa872	-0.0068255
99	0xbbfdc095	-0.007743905
100	0x3b8fe3ab	0.004391154
101	0xbba4c0b9	-0.005027857
102	0xbaa57a07	-0.0012624868
103	0xbab01f1a	-0.0013437003
104	0x3c04cede	0.008105962
105	0x3a576937	0.00082172774
106	0xbc7c1898	-0.015386723
107	0xbb09a7a4	-0.0021004463
108	0xbcdd8f7d	-0.02704596
109	0xbbd66da3	-0.0065438314
110	0xbc388833	-0.011262941
111	0xbc5ffb6a	-0.013670782
112	0xbc7fc583	-0.015611055
113	0xbc0001da	-0.007812941
114	0xbc31c7a0	-0.010850817
115	0x3bd35a40	0.0064499676
116	0x3bc52173	0.0060159503
117	0x3b1fa627	0.002436051
118	0xbccea723	-0.025226181
119	0x3c95299b	0.018208316
120	0xbc5efb07	-0.013609654
121	0x3c163d98	0.0091699585
122	0xbb652ab2	-0.0034968075
123	0xbc0a725b	-0.008450116
124	0x3bb59fae	0.005542717
125	0xbcad6d87	-0.02117039
126	0xbb84e0ba	-0.00405511
127	0xbc8bd1c4	-0.017067797
